actor_final.pth (torch, 704631 bytes, 6 tensors)

fc1.weight f4 [400, 33]
-0.38321492 -0.008103107 -0.50924695 0.018913394 -0.77331185 0.09238125 0.019219542 -0.21201783
-0.033772662 -0.11998381 0.045353703 0.24623524 -0.032790232 0.10663505 0.568851 0.39603615
0.079180695 0.23578809 0.21474352 0.14532463 0.05230122 -0.058065083 -0.12202801 0.040775884
0.25243565 0.15859264 0.023375008 -0.025665091 -0.12048082 0.16886416 0.22426522 -0.14986819
1.3728871 0.54715633 0.16798253 0.32232863 -0.37470844 0.96184266 0.34481475 0.013038917
0.09035076 0.12793656 0.20685287 0.15807182 -0.02801359 0.15829499 0.018709661 0.43672353
-0.12525924 0.057927735 0.7111671 -0.37574983 -0.2836501 -0.028798383 0.02208083 0.18778259
-0.15110195 0.12628801 0.028782407 -0.09320869 0.076427326 0.19057819 -0.08195857 0.06862198
-0.05834385 -1.7052319 -0.6099324 0.3636252 0.37198675 0.0047212224 -0.15860358 -0.86264074
0.018028527 -0.15497428 -0.21851388 -0.26696995 -0.306446 0.22618747 -0.017395096 0.10034616
0.17013678 -0.256221 -0.14344734 -0.14038917 -0.4045279 0.023020728 -0.22915989 0.20405675
0.21913475 -0.01674768 -0.14237823 0.0960817 -0.008362604 0.5029034 -0.10616514 -0.141745
-0.4054739 -0.07999144 0.29315504 -0.10191298 0.48026842 -0.34983104 -0.27478564 -0.336723
-0.6931785 0.16946095 0.108881585 -0.4340825 -0.32995173 0.03068015 0.29784414 -0.3711979
0.09151806 0.24978037 0.23663028 0.22296762 -0.29020086 0.074295245 -0.57226413 -0.021540588
-0.3646554 -0.42206252 -0.3242651 0.12960975 -0.15134445 0.34268475 0.4799052 -0.021513814
0.12206152 -0.19467087 0.13565159 1.0956857 0.4250512 -0.056359597 -0.22902972 -0.39143845
-0.35739276 -0.3102093 -0.09471305 0.069135115 0.5322854 0.11957275 -0.045683403 -0.24970937
-0.21608381 -0.5328885 0.29363522 0.029810568 0.19188277 0.105948865 -0.102612704 -0.014778457
-0.14199127 0.077934064 -0.021024182 -0.22402076 0.07228489 -0.11015236 -0.08752748 0.3463078
0.021662055 0.037630945 -0.36048734 -0.077817306 -1.2457454 -0.8804789 0.16296007 0.30072197
-0.6465369 -0.6312762 0.7648724 0.46957055 -0.31549895 0.020066153 0.005232204 -0.04056706
0.08998915 0.16987814 0.405357 0.36061853 0.149702 -0.47147217 -0.07038727 -1.0126642
0.5360777 -0.07381974 -0.21864907 0.07606234 0.0029319183 0.30246627 0.25529498 0.1170813
0.473766 -0.09984954 0.022462457 -0.28988066 0.09572801 0.0014689201 0.1452778 0.035605792
0.53367764 -0.4887903 0.46159986 0.094851024 -0.43822387 -0.15898065 -0.027309433 0.36033875
0.019590473 0.33590326 0.1669743 0.10919167 0.3485015 0.09409068 0.0990444 -0.04573809
0.067230016 -0.027642813 -0.09151156 0.09437107 -0.090400495 -0.26439694 0.04192277 0.09614304
-0.34837115 0.35210493 0.1672029 -0.023000538 -0.3010967 -0.0035928339 -1.7570999 0.30440667
0.44195762 -0.32414082 -0.105339095 0.23228492 -0.15766028 -0.59131694 0.14316632 -0.037368145
0.6490795 0.21237804 0.22889175 -0.2512283 0.14421126 0.37186062 0.20343214 0.62672704
0.770327 -0.0096946675 -0.15913464 -0.059010327 -0.33097434 -0.022488378 0.3726663 0.2909822
00000000: bf34 c4be e5c2 04bc 025e 02bf 43f0 9a3c
00000010: c4f7 45bf 6132 bd3d 4d72 9d3c 341b 59be
00000020: 3455 0abd 12ba f5bd cec4 393d 1725 7c3e
00000030: 0d4f 06bd 7a63 da3d 38a0 113f 40c5 ca3e
00000040: 7d29 a23d 6f72 713e bae5 5b3e fbcf 143e
00000050: ce39 563d a7d5 6dbd d2e9 f9bd 9d04 273d
00000060: 3f3f 813e 1c66 223e f27c bf3c 993f d2bc
00000070: a6be f6bd baea 2c3e c8a5 653e 0c77 19be
00000080: c4ba af3f 7012 0c3f 9d03 2c3e 4208 a53e
00000090: c9d9 bfbe 523b 763f 8f8b b03e 2fa1 553c
000000a0: d209 b93d cd01 033e 3dd1 533e 94dd 213e
000000b0: c27c e5bc 1518 223e 0145 993c 3a9a df3e
000000c0: f543 00be a245 6d3d 0c0f 363f 4862 c0be
000000d0: 963a 91be 96ea ebbc dbe2 b43c 144a 403e
000000e0: 78ba 1abe a551 013e 15c9 eb3c 33e4 bebd
000000f0: ee85 9c3d ee26 433e e5d9 a7bd ae89 8c3d
00000100: f6f9 6ebd 0a45 dabf 8824 1cbf 152d ba3e
00000110: 0c75 be3e 7cb4 9a3b fa68 22be 06d6 5cbf
00000120: 90b0 933c 94b1 1ebe 1ac2 5fbe 49b0 88be
00000130: 7de6 9cbe b09d 673e 2980 8ebc 4a82 cd3d
00000140: 5638 2e3e 662f 83be dce3 12be 2ec2 0fbe
00000150: 481e cfbe f795 bc3c e4a8 6abe 41f4 503e
00000160: dc64 603e 6e32 89bc 99cb 11be 7bc6 c43d
00000170: 4e03 09bc 47be 003f 1c6d d9bd 9a25 11be
00000180: 469a cfbe 8dd2 a3bd 6b18 963e c1b7 d0bd
00000190: bee5 f53e 0e1d b3be b4b0 8cbe f566 acbe
000001a0: 2574 31bf 2c87 2d3e 4ffd de3d 1040 debe
000001b0: 6fef a8be f054 fb3c 077f 983e a70d bebe
000001c0: d26d bb3d 6dc6 7f3e 354f 723e a051 643e
000001d0: 3595 94be 1b28 983d e77f 12bf e375 b0bc
000001e0: 1db4 babe 9418 d8be 1306 a6be 6bb8 043e
000001f0: 0afa 1abe 6074 af3e 22b6 f53e bd3d b0bc
00000200: 64fb f93d cd57 47be 40e8 0a3e 6e3f 8c3f
00000210: 50a0 d93e 52d9 66bd c486 6abe 9f6a c8be
00000220: 2ffc b6be c1d3 9ebe eaf8 c1bd b696 8d3d
00000230: db43 083f 8fe2 f43d 851e 3bbd d0b3 7fbe
00000240: 1345 5dbe 616b 08bf 5b57 963e 4b35 f43c
00000250: eb7c 443e b8fb d83d 9c26 d2bd 5721 72bc
00000260: 2966 11be e59b 9f3d e83a acbc b365 65be
00000270: 1a0a 943d 8f97 e1bd 9c41 b3bd 424f b13e
00000280: 9f74 b13c e822 1a3d cc91 b8be ae5e 9fbd
00000290: 9674 9fbf 1167 61bf 01df 263e 3bf8 993e
000002a0: 7183 25bf 519b 21bf adce 433f 8d6b f03e
000002b0: 1489 a1be c661 a43c e972 ab3b a529 26bd
000002c0: 3b4c b83d 89f4 2d3e f48a cf3e fea2 b83e
000002d0: 7b4b 193e cd64 f1be 3327 90bd fb9e 81bf
000002e0: 633c 093f ce2e 97bd 8be5 5fbe 92c6 9b3d
000002f0: 6d25 403b dcdc 9a3e 06b6 823e 52c8 ef3d
00000300: 7591 f23e ea7d ccbd 3003 b83c 3d6b 94be
00000310: 0c0d c43d c888 c03a b4c3 143e 61d7 113d
00000320: 199f 083f b942 fabe d156 ec3e 4141 c23d
00000330: e15e e0be d3cb 22be 08b8 dfbc 527e b83e
00000340: 337c a03c 83fb ab3e 50fb 2a3e e29f df3d
00000350: ca6e b23e 9db2 c03d cad7 ca3d dd57 3bbd
00000360: e4af 893d 2e73 e2bc 6a6a bbbd 9f45 c13d
00000370: e523 b9bd 095f 87be 36b7 2b3d a4e6 c43d
00000380: b45d b2be 1947 b43e 3d37 2b3e a06b bcbc
00000390: 5929 9abe c075 6bbb a6e8 e0bf 31db 9b3e
000003a0: 4548 e23e c9f5 a5be 06bc d7bd 19dc 6d3e
000003b0: b271 21be 8c60 17bf 319a 123e 570f 19bd
000003c0: 132a 263f a179 593e 9962 6a3e ffa0 80be
000003d0: 1eac 133e 8464 be3e 8450 503e 2f71 203f
000003e0: 2634 453f 62d6 1ebc 31f4 22be d0b4 71bd
000003f0: 7875 a9be 8c39 b8bc 1ece be3e 9efb 943e

fc1.bias f4 [400]
0.20986928 0.066540666 -0.6077432 -0.24280185 -0.3649579 -0.22046676 -0.14761345 -0.15417601
-0.5207768 -0.009379155 -0.14729115 -0.0162709 -0.37314802 -0.16319577 -0.075183 -0.57005143
-0.29311204 -0.16677773 -0.6207502 -0.21024385 -0.3321515 -0.32518205 -0.3828876 -0.43813127
-0.21336988 -0.3501926 -0.5258716 -0.25076815 -0.36725828 -0.24300818 -0.2819978 -0.56358004
-0.18857692 -0.13759878 -0.48374236 -0.5197121 -0.5070518 -0.02511783 -0.17626494 -0.109212145
0.0076238927 -0.34324947 -0.48002827 -0.40063366 -0.45964414 -0.05694016 -0.32272232 -0.1682117
-0.56836295 -0.1555901 -0.5777069 -0.3902981 -0.30011898 -0.19028443 -0.26944736 0.061399586
0.09921385 -0.4176792 -0.710528 0.4084425 -0.0811708 -0.35884815 -0.45473352 -0.22949982
-0.47801 -0.4283638 -0.1985825 -0.20742735 0.06425697 -0.11481904 -0.16586964 -0.37494588
0.16936414 -0.056308743 -0.086449936 -0.435434 -0.13159508 0.18905346 0.12367315 -0.44200212
0.10725272 -0.05696911 -0.24348539 -0.05074036 -0.48574233 -0.5118638 -0.5531431 -0.24303326
-0.2387826 -0.28921846 0.07877699 -0.3207504 -0.18267283 -0.4436549 -0.7763549 -0.6334566
-0.65040374 -0.617297 -0.18398938 -0.44858316 -0.4154659 -0.104872644 -0.03869848 -0.09007826
-0.0741966 -0.14570265 -0.29079592 -0.15807739 -0.26308307 -0.056940198 -0.3246716 -0.2487793
-0.16094089 -0.69457394 -0.409455 -0.2879747 -0.35709593 0.010460795 -0.35897252 -0.50264776
-0.5500471 -0.3394455 -0.0044117724 -0.004209569 -0.36859134 -0.2944006 -0.4430813 -0.3778912
-0.35730207 0.12928544 -0.3496779 -0.13552356 -0.33290792 -0.076266006 -0.57013875 -0.48887056
-0.37122098 -0.098979786 0.06488812 0.0695019 -0.12983075 -0.2591016 -0.6000613 -0.62974834
-0.31540903 -0.20912015 -0.12468263 -0.12624797 -0.22469905 -0.09406618 -0.42228374 0.2719122
-0.12713116 -0.43149263 -0.18486921 -0.47248402 -0.50088197 -0.36973947 -0.3089588 -0.28548133
0.0019838032 0.103373244 -0.34058514 -0.5534515 -0.41116038 -0.22083841 -0.40397298 -0.3082723
-0.2802707 -0.28838062 -0.25547218 0.17767932 -0.5672777 -0.24564098 0.35217533 -0.27170357
-0.027110958 -0.36357847 -0.18528043 -0.5335538 -0.09436302 -0.5105624 -0.55656886 -0.3044686
-0.12475909 -0.099383526 -0.31442064 -0.21697554 0.06564882 -0.27447692 -0.16580854 -0.48100007
-0.56081575 -0.35332245 -0.3851999 -0.42689866 -0.32982898 -0.42943445 -0.39787355 -0.46406153
-0.30501294 -0.09886294 -0.06720474 -0.3856762 -0.33194578 -0.47630307 -0.20651166 -0.365821
-0.39216182 -0.2927463 0.18594454 -0.28421748 -0.0074475054 -0.34761453 -0.027081607 0.09792676
-0.47016916 -0.4726587 -0.17536059 -0.12163982 -0.34692487 0.07345323 0.0834549 -0.30956277
-0.35052964 -0.17529084 0.024377009 -0.10509879 -0.38279507 -0.18382491 -0.07035896 -0.41750166
-0.28198513 -0.4339248 -0.40718475 -0.08191979 -0.275534 0.004512254 -0.4271178 -0.5627452
-0.18126468 -0.09535171 -0.25664303 -0.266513 -0.26794043 -0.31953773 -0.23199992 0.2593491
0.062999174 -0.097943135 -0.21153477 -0.48436907 -0.38554987 -0.20268734 -0.29803202 -0.32868972
00000000: f9e7 563e 7946 883d 0f95 1bbf 0ca1 78be
00000010: c3db babe 0ac2 61be fb27 17be 51e0 1dbe
00000020: a151 05bf 07ab 19bc 7ed3 16be 8d4a 85bc
00000030: 420d bfbe cb1c 27be 8bf9 99bd e4ee 11bf
00000040: c812 96be c8c7 2abe 7ce9 1ebf 2a4a 57be
00000050: c30f aabe 437e a6be d809 c4be be52 e0be
00000060: a27d 5abe 724c b3be 859f 06bf af64 80be
00000070: 4709 bcbe 23d7 78be 0462 90be c846 10bf
00000080: 4f1a 41be b2e6 0cbe 14ad f7be da0b 05bf
00000090: 26ce 01bf e8c3 cdbc cc7e 34be 9eaa dfbd
000000a0: d9d1 f93b 65be afbe 44c6 f5be db1f cdbe
000000b0: 7a56 ebbe 163a 69bd dc3b a5be b03f 2cbe
000000c0: 3c80 11bf 0353 1fbe 99e4 13bf 27d5 c7be
000000d0: 32a9 99be ecd9 42be 01f5 89be 227e 7b3d
000000e0: a230 cb3d 0cda d5be 2ae5 35bf 601f d13e
000000f0: e03c a6bd f2ba b7be d5d2 e8be 0002 6bbe
00000100: babd f4be 8052 dbbe 3659 4bbe d667 54be
00000110: 2999 833d 3f26 ebbd bbd9 29be e8f8 bfbe
00000120: cb6d 2d3e ffa3 66bd aa0c b1bd 35f1 debe
00000130: dcc0 06be 3b97 413e 5948 fd3d 1a4e e2be
00000140: 50a7 db3d 7158 69bd 3c54 79be 20d5 4fbd
00000150: 38b3 f8be 8209 03bf c99a 0dbf b6dd 78be
00000160: 6d83 74be 7114 94be d555 a13d 6539 a4be
00000170: 960e 3bbe bc26 e3be 32bf 46bf 362a 22bf
00000180: dc80 26bf 2d07 1ebf b667 3cbe b1ac e5be
00000190: f2b7 d4be 78c7 d6bd 4c82 1ebd f37a b8bd
000001a0: 63f4 97bd 1333 15be 34e3 94be 0adf 21be
000001b0: d3b2 86be 203a 69bd 5b3b a6be 00c0 7ebe
000001c0: b0cd 24be 99cf 31bf 16a4 d1be 6b71 93be
000001d0: 47d5 b6be c163 2b3c 3fcb b7be 86ad 00bf
000001e0: e3cf 0cbf cdcb adbe a190 90bb 6df0 89bb
000001f0: 01b8 bcbe adbb 96be 8ddb e2be f57a c1be
00000200: 4cf0 b6be 6763 043e fb08 b3be b0c6 0abe
00000210: e872 aabe 5a31 9cbd 9df4 11bf 3e4d fabe
00000220: ad10 bebe eab5 cabd 10e4 843d 0357 8e3d
00000230: 5af2 04be f7a8 84be 9e9d 19bf 3037 21bf
00000240: 4b7d a1be 9823 56be 9b59 ffbd 2647 01be
00000250: 8217 66be c5a5 c0bd 9335 d8be 1338 8b3e
00000260: ac2e 02be 9aec dcbe 5b4e 3dbe 6de9 f1be
00000270: cd39 00bf 7e4e bdbe d92f 9ebe 9c2a 92be
00000280: b202 023b 5ab5 d33d 2d61 aebe ffae 0dbf
00000290: 9d83 d2be 7723 62be 8cd5 cebe ded5 9dbe
000002a0: a47f 8fbe a0a6 93be 40cd 82be 91f1 353e
000002b0: 1d39 11bf 4f89 7bbe 5350 b43e bb1c 8bbe
000002c0: cd17 debc f526 babe 27ba 3dbe fb96 08bf
000002d0: 6641 c1bd 38b4 02bf 4c7b 0ebf 4fe3 9bbe
000002e0: b281 ffbd 9789 cbbd befb a0be d62e 5ebe
000002f0: e372 863d 3d88 8cbe b7c9 29be a445 f6be
00000300: 9f91 0fbf aee6 b4be ec38 c5be 7692 dabe
00000310: 58df a8be d5de dbbe 15b6 cbbe 7999 edbe
00000320: a82a 9cbe a778 cabd a4a2 89bd 5a77 c5be
00000330: ccf4 a9be ffdd f3be cb77 53be e44c bbbe
00000340: 6fc9 c8be d8e2 95be 3f68 3e3e f484 91be
00000350: 340a f4bb 88fa b1be 3fda ddbc d38d c83d
00000360: 03ba f0be 5200 f2be ba91 33be 4c1e f9bd
00000370: 23a0 b1be a66e 963d 67ea aa3d 037f 9ebe
00000380: 9f78 b3be 717f 33be 4bb2 c73c 093e d7bd
00000390: b7fd c3be 993c 3cbe 5c18 90bd c7c2 d5be
000003a0: 5b60 90be 642b debe 857a d0be 90c5 a7bd
000003b0: cb12 8dbe 88db 933b 2faf dabe 1210 10bf
000003c0: 739d 39be c247 c3bd b766 83be 6474 88be
000003d0: 7d2f 89be 739a a3be 6391 6dbe 68c9 843e
000003e0: b605 813d 6996 c8bd 929c 58be 39ff f7be
000003f0: cb66 c5be 458d 4fbe a797 98be 054a a8be

fc2.weight f4 [400, 400]
0.25000808 0.07342664 -0.053249396 0.12458256 0.06504944 0.011204422 -0.48611137 -0.17082068
0.08791464 -0.06024324 -0.3960123 -0.30717346 -0.063801736 -0.15869312 -0.65227926 0.23665114
-0.15101188 -0.092535526 0.106486954 0.008234616 0.113825336 -0.06061273 -0.41248927 -0.054928444
0.09569674 -0.23949952 -0.29237637 -0.27881303 -0.011771461 0.62366253 -0.1764452 0.28150707
0.24838635 0.038976777 -0.38741702 -0.42774624 0.093384124 -0.55607206 0.21337703 -0.21522619
0.013656459 0.11226797 -0.1459264 -0.40236655 -0.4250143 -0.27403298 0.1425145 -0.23764604
0.008535959 -0.24999249 -0.77485937 0.4004956 -0.53819203 0.16283904 -0.17391132 -0.66971374
-0.5786642 0.15414633 -0.5166253 -0.118330106 -0.14051454 -0.28101635 -0.27686128 -0.16287296
-0.24739626 -0.01553788 -0.097788595 -0.19991916 -0.07762004 -0.06985766 -0.111975 -0.41953194
-0.2801457 -0.46942386 0.10296231 -0.053394295 -0.2609502 -0.17898841 -0.037982397 -0.16846322
-0.40258566 0.051337946 0.24004546 0.030212693 -0.45038366 0.28484866 -0.22251612 0.17632365
0.1649279 -0.13412997 -0.00264762 -0.3484215 -0.16540618 0.24399494 -0.040716443 -0.291509
0.13291615 -0.26534122 -0.016252054 -0.40814218 -0.12263654 -0.14399624 -0.10489386 -0.11448323
-0.060437325 0.43350708 -0.547155 -0.127589 -0.44826588 -0.29692692 0.048033778 0.020751808
-0.2286836 0.36022225 0.18549883 0.4038669 -0.48975968 -0.24896389 -0.31230155 -0.12723635
-0.009307837 -0.42515987 -0.09363273 0.3118869 -0.1618044 0.20504716 0.19157535 -0.2592451
-0.052109677 -0.088293664 -0.66629267 -0.27360973 0.21552345 -0.0522262 -0.2162472 -0.18239409
-0.14218108 -0.29760644 -0.029319474 -0.17586218 -0.016372109 -0.5046096 0.27499467 -0.2149572
0.32134712 0.32808295 -0.2941241 0.22740884 -0.32249704 0.38421234 0.32397565 0.21267213
0.09837674 0.37415972 -0.036192246 -0.087561935 0.060662087 0.27299064 0.10603674 0.27671564
0.11172513 0.16255173 -0.031427793 -0.59362394 -0.012652828 0.18396704 0.025504597 -0.015393233
0.04468088 -0.20913272 -0.0010779856 -0.00508858 -0.045202255 0.23106293 -0.7543999 -0.015037817
0.17323974 0.04610965 -0.25783432 -0.08680007 0.009895532 0.1960408 -0.3345222 -0.3965821
0.37742117 -0.11693231 -0.15235458 -0.07824244 -0.41465622 0.12439283 -0.4696875 0.03221732
0.17047696 -0.79867357 -0.087343425 0.09164928 0.29827243 0.16615304 -0.51771235 0.45290884
-0.13614528 0.27600285 0.005172353 0.2637245 -0.14309807 -0.34135607 0.14754704 0.355669
-0.09706058 -0.47834745 -0.08268458 0.11694078 -0.16431712 -0.48725975 -0.38197634 -0.14159508
0.051226422 -0.30794647 -0.13785607 0.25276172 -0.46014187 -0.01729516 -0.19371662 -0.34397373
-0.028112825 -0.24467261 -0.17369197 0.142375 0.0934467 -0.21838006 -0.2910213 0.042904105
-0.25426096 0.308181 -0.14855857 -0.4452137 -0.2800933 -0.28362936 0.31373572 0.009173536
0.2317382 0.095735066 0.07237834 0.1562818 0.23261733 0.3070206 -0.18585426 -0.04561458
-0.54733044 -0.11103753 -0.446633 -0.3832447 -0.14112121 -0.030166605 0.39512554 -0.22264875
00000000: 0f01 803e b560 963d 0a1c 5abd 2425 ff3d
00000010: a438 853d c192 373c 97e3 f8be 9eeb 2ebe
00000020: 970c b43d 9ec1 76bd 20c2 cabe d745 9dbe
00000030: 7caa 82bd 7380 22be c6fb 26bf ad54 723e
00000040: dca2 1abe 4483 bdbd d515 da3d 7cea 063c
00000050: 421d e93d 0e45 78bd cb31 d3be a6fc 60bd
00000060: a7fc c33d 5d3f 75be 5bb2 95be 95c0 8ebe
00000070: 16dd 40bc 59a8 1f3f 0dae 34be b221 903e
00000080: fe58 7e3e 1da6 1f3d 865b c6be 8e01 dbbe
00000090: 2d40 bf3d bd5a 0ebf 827f 5a3e 4164 5cbe
000000a0: 57bf 5f3c c0ec e53d bb6d 15be fd02 cebe
000000b0: 799b d9be 0d4e 8cbe 52ef 113e 7c59 73be
000000c0: 68da 0b3c 08fe 7fbe 2f5d 46bf c20d cd3e
000000d0: f4c6 09bf 47bf 263e cf15 32be 5c72 2bbf
000000e0: 5623 14bf 89d8 1d3e 8e41 04bf 0e57 f2bd
000000f0: 0be3 0fbe 60e1 8fbe c3c0 8dbe 2bc8 26be
00000100: 7255 7dbe 9892 7ebc 6345 c8bd 9cb7 4cbe
00000110: 41f7 9ebd 8811 8fbd 2653 e5bd e4cc d6be
00000120: 426f 8fbe 5358 f0be e7dd d23d fab3 5abd
00000130: 449b 85be bd48 37be 6e93 1bbd 9f81 2cbe
00000140: b51f cebe bd47 523d 7ace 753e 9c80 f73c
00000150: b098 e6be afd7 913e 44db 63be 308e 343e
00000160: dce2 283e 5e59 09be b183 2dbb 4e64 b2be
00000170: 3d60 29be cfd9 793e 49c6 26bd ab40 95be
00000180: 2c1b 083e ceda 87be 0723 85bc 03f8 d0be
00000190: de28 fbbd c073 13be 98d2 d6bd 2f76 eabd
000001a0: 218d 77bd a4f4 dd3e 5a12 0cbf b1a6 02be
000001b0: 1b83 e5be ce06 98be 11bf 443d b2ff a93c
000001c0: 092c 6abe 0d6f b83e 68f3 3d3e a4c7 ce3e
000001d0: c8c1 fabe 64f0 7ebe fde5 9fbe 3f4a 02be
000001e0: e67f 18bc 8eae d9be 84c2 bfbd a4af 9f3e
000001f0: 0db0 25be e2f7 513e 542c 443e c6bb 84be
00000200: f570 55bd 4fd3 b4bd 2892 2abf 9316 8cbe
00000210: 2eb2 5c3e 24eb 55bd e86f 5dbe 84c5 3abe
00000220: eb97 11be df5f 98be 652f f0bc 3715 34be
00000230: cd1e 86bc 182e 01bf 1acc 8c3e be1d 5cbe
00000240: 9c87 a43e 7dfa a73e 6f97 96be dddd 683e
00000250: 551e a5be 7bb7 c43e 23e0 a53e b9c6 593e
00000260: bf79 c93d dd91 bf3e 523e 14bd ac53 b3bd
00000270: cf78 783d 6ec5 8b3e ca29 d93d acad 8d3e
00000280: 25d0 e43d f673 263e 6eba 00bd bdf7 17bf
00000290: cf4d 4fbc db61 3c3e 04ef d03c e633 7cbc
000002a0: 4c03 373d e326 56be 324b 8dba 1abe a6bb
000002b0: 0026 39bd c39b 6c3e 5a20 41bf 2d61 76bc
000002c0: c265 313e 79dd 3c3d dc02 84be 3cc4 b1bd
000002d0: df20 223c ebbe 483e 7e46 abbe cf0c cbbe
000002e0: 593d c13e 357a efbd d702 1cbe 933d a0bd
000002f0: d24d d4be abc1 fe3d e17a f0be 4ff6 033d
00000300: 8391 2e3e df75 4cbf 1ce1 b2bd 9eb2 bb3d
00000310: 2ab7 983e 0624 2a3e cc88 04bf abe3 e73e
00000320: ab69 0bbe 3f50 8d3e d77c a93b e606 873e
00000330: 4d88 12be 39c6 aebe 9216 173e 3f1a b63e
00000340: b3c7 c6bd f5e9 f4be 8856 a9bd a67e ef3d
00000350: bf42 28be 1c7a f9be 6792 c3be 4dfe 10be
00000360: ccd2 513d 29ab 9dbe 242a 0dbe fc69 813e
00000370: b797 ebbe 94ae 8dbc a65d 46be 531d b0be
00000380: de4c e6bc 758b 7abe 4fdc 31be c1ca 113e
00000390: fc60 bf3d 069f 5fbe be00 95be 37bc 2f3d
000003a0: 7e2e 82be e6c9 9d3e bd1f 18be 0df3 e3be
000003b0: 6468 8fbe de37 91be f8a1 a03e 994c 163c
000003c0: c74c 6d3e bf10 c43d 183b 943d 5608 203e
000003d0: 3d33 6e3e ce31 9d3e 9450 3ebe 5bd6 3abd
000003e0: d91d 0cbf a567 e3bd 15ad e4be a638 c4be
000003f0: 1482 10be f51f f7bc e54d ca3e 09fe 63be

fc2.bias f4 [400]
-0.12208278 -0.06906186 -0.25251314 -0.08949885 -0.03457503 -0.28567672 0.17176478 -0.20356667
0.09729285 0.036231905 -0.23825951 -0.35608017 -0.2633018 -0.4159158 -0.344987 -0.008896552
-0.10163739 -0.050686967 -0.39292789 -0.31853813 0.064860255 0.1287585 -0.63924015 -0.28190798
-0.24878223 0.048759654 -0.29789004 -0.07138887 0.037042912 -0.075999364 0.050114814 -0.111708574
-0.37151387 -0.21799113 -0.35294375 0.14141722 -0.5516207 -0.039327677 -0.6563134 -0.09834875
-0.2036884 -0.050701212 0.025901806 -0.15776424 0.11503272 -0.020039063 -0.05249301 -0.29447928
-0.135618 -0.32895982 -0.055736043 -0.1144529 -0.21212825 -0.0051496965 0.0001924751 -0.03448015
-0.34833366 -0.28370553 0.25077456 0.06951485 -0.40321183 -0.049277104 -0.32129106 0.080876924
-0.22561102 -0.35695955 0.0747652 -0.19380239 0.4088195 0.2676963 -0.43321687 0.28945935
-0.2184844 -0.38555977 -0.23945944 -0.20351298 -0.059733056 0.1272569 -0.34185377 -0.43692714
-0.49070066 -0.22121444 -0.1374356 -0.11957224 -0.06569564 0.029477237 -0.70464545 -0.111236446
-0.12419314 -0.046439998 -0.22855288 -0.16864726 0.16048867 -0.19506498 -0.19273849 -0.3602167
0.29451552 -0.026802326 -0.40999457 -0.33112192 0.075844936 -0.0120754875 -0.33498612 -0.10209577
-0.07749596 0.093997754 -0.093706 -0.17902865 0.036006797 -0.074340396 -0.5499011 -0.3389565
-0.33638096 -0.022420479 -0.1607695 -0.060057033 -0.043507654 -0.09411742 -0.54204506 -0.1703234
-0.2523492 -0.41258693 -0.18769126 -0.15894473 0.024914565 0.31651774 -0.036752112 0.08198134
-0.3135028 -0.32320365 0.2658074 -0.14887872 0.022628916 -0.2479833 -0.24777544 -0.33737266
-0.27550092 -0.2167654 0.20346135 -0.13709173 0.26065984 0.16523466 -0.16516902 0.1299122
-0.109835334 -0.18114801 -0.49445218 -0.41341558 -0.50856894 0.037210755 0.0069536986 0.22962438
0.13202481 0.14860457 -0.5883818 -0.09702608 -0.22130899 -0.23649192 0.06579646 -0.34298396
0.2066596 -0.23395763 -0.008888945 -0.15259403 -0.34793594 -0.16412449 0.07495219 0.12728989
-0.4271087 -0.58415216 0.1462147 -0.24528798 -0.4612539 0.06464812 -0.010249752 -0.104847655
0.04265742 -0.35895178 -0.19962078 -0.12974279 -0.21565303 -0.252405 -0.06345929 -0.31055295
0.06907677 -0.027162695 -0.41642216 -0.0063521196 -0.0036509424 0.0020254157 -0.2470601 0.1068127
-0.0613306 -0.48687002 -0.09447863 -0.34567112 -0.14769578 -0.03527619 -0.41413015 0.1462206
-0.26928136 -0.23152922 -0.39944392 -0.09154221 -0.09880008 0.02420856 -0.5430111 0.22924858
-0.28476986 -0.26983327 -0.0472717 -0.11316182 0.058890652 0.0039354046 0.1297636 -0.19205853
-0.16036308 -0.2999362 -0.52365017 -0.2741435 -0.39522615 -0.24213801 -0.07810387 -0.15720658
-0.25888285 -0.09061669 -0.073788814 0.41646862 -0.20553625 -0.26599702 -0.1261284 -0.09662372
-0.20582336 0.08709811 -0.5449677 -0.12115155 -0.11682148 0.081524745 -0.009259913 0.35543212
-0.13189532 -0.060461786 -0.13917439 -0.069213934 -0.2756153 -0.10465194 -0.36471948 -0.13803826
-0.19271392 -0.5052258 0.10750855 -0.032690182 -0.0037765051 -0.08907929 -0.020748107 -0.6012684
00000000: 8906 fabd 4e70 8dbd 6749 81be 2c4b b7bd
00000010: 8c9e 0dbd 3844 92be 1be3 2f3e c873 50be
00000020: 7941 c73d e867 143d 4dfa 73be 2450 b6be
00000030: 7ecf 86be eaf2 d4be 23a2 b0be d8c2 11bc
00000040: 4427 d0bd 239d 4fbd d82d c9be 6e17 a3be
00000050: 74d5 843d 45d9 033e 3ea5 23bf 3e56 90be
00000060: c5c0 7ebe 34b8 473d 0b85 98be 5434 92bd
00000070: 4fba 173d 8ea5 9bbd 3145 4d3d 77c7 e4bd
00000080: 1137 bebe 1139 5fbe 0bb5 b4be adcf 103e
00000090: 0437 0dbf 0f16 21bd 2804 28bf 126b c9bd
000000a0: b193 50be 13ac 4fbd 0630 d43c f38c 21be
000000b0: 4696 eb3d f628 a4bc e902 57bd fdc5 96be
000000c0: 72df 0abe 6c6d a8be 7a4b 64bd 4866 eabd
000000d0: 2638 59be c9be a8bb 24d3 4939 0f3b 0dbd
000000e0: ca58 b2be da41 91be 8665 803e cd5d 8e3d
000000f0: c871 cebe cad6 49bd 4380 a4be cda2 a53d
00000100: 9306 67be 67c3 b6be 7f1e 993d 2274 46be
00000110: ca50 d13e 7d0f 893e 9ace ddbe 0434 943e
00000120: 60ba 5fbe 1768 c5be db34 75be b565 50be
00000130: a6aa 74bd a24f 023e 7507 afbe eab4 dfbe
00000140: 1e3d fbbe 0a86 62be ebbb 0cbe 4ae2 f4bd
00000150: 708b 86bd 3f7a f13c a563 34bf efcf e3bd
00000160: f958 febd de37 3ebd c409 6abe deb1 2cbe
00000170: 2457 243e 1dbf 47be 3d5d 45be 536e b8be
00000180: bdca 963e 8d90 dbbc cfea d1be d088 a9be
00000190: 9754 9b3d 44d8 45bc 4d83 abbe 9617 d1bd
000001a0: 34b6 9ebd e581 c03d eee8 bfbd 4953 37be
000001b0: dd7b 133d c73f 98bd 52c6 0cbf b58b adbe
000001c0: 203a acbe 27ab b7bc c3a0 24be 5dfe 75bd
000001d0: 1535 32bd a2c0 c0bd 77c3 0abf 4269 2ebe
000001e0: ea33 81be 983e d3be 2332 40be 68c2 22be
000001f0: a119 cc3c 9d0e a23e 6289 16bd d5e5 a73d
00000200: 7083 a0be f37a a5be e817 883e aa73 18be
00000210: 4760 b93c 56ef 7dbe d8b8 7dbe 1cbc acbe
00000220: 750e 8dbe c0f7 5dbe 2c58 503e c661 0cbe
00000230: 3575 853e 4633 293e 1122 29be b407 053e
00000240: 59f1 e0bd dd7e 39be d628 fdbe 35ab d3be
00000250: 9331 02bf 4e6a 183d dadb e33b a722 6b3e
00000260: 8331 073e cc2b 183e 31a0 16bf 9cb5 c6bd
00000270: d39e 62be f02a 72be 4bc0 863d 989b afbe
00000280: 939e 533e 9792 6fbe f0a2 11bc 9c41 1cbe
00000290: a924 b2be 4010 28be 8980 993d 4858 023e
000002a0: fead dabe ff8a 15bf 4eb9 153e c62c 7bbe
000002b0: 7929 ecbe 3c66 843d 93ee 27bc 5eba d6bd
000002c0: 8cb9 2e3d 87c8 b7be 6469 4cbe 4bdb 04be
000002d0: 26d4 5cbe 3a3b 81be f2f6 81bd cc00 9fbe
000002e0: 1f78 8d3d 4d84 debc 4935 d5be 7125 d0bb
000002f0: a644 6fbb d6bc 043b 53fd 7cbe 9ec0 da3d
00000300: cc35 7bbd 0747 f9be 037e c1bd cefb b0be
00000310: 903d 17be c47d 10bd de08 d4be daba 153e
00000320: 3fdf 89be ff15 6dbe ea83 ccbe 7b7a bbbd
00000330: b257 cabd 0851 c63c c702 0bbf 24c0 6a3e
00000340: 5bcd 91be 9627 8abe f89f 41bd 62c1 e7bd
00000350: 5337 713d 91f4 803b c0e0 043e feaa 44be
00000360: 3836 24be 3d91 99be f00d 06bf 895c 8cbe
00000370: 155b cabe 07f3 77be ecf4 9fbd c3fa 20be
00000380: 4b8c 84be 3e95 b9bd 971e 97bd 603b d53e
00000390: 1878 52be c330 88be ce27 01be a8e2 c5bd
000003a0: 5cc3 52be 7e60 b23d 0183 0bbf 4e1e f8bd
000003b0: 1a40 efbd 72f6 a63d e4b6 17bc 33fb b53e
000003c0: 910f 07be c7a6 77bd bb83 0ebe 09c0 8dbd
000003d0: 731d 8dbe c253 d6bd 83bc babe e759 0dbe
000003e0: cc56 45be 7a56 01bf 712d dc3d 24e6 05bd
000003f0: 3e7f 77bb 346f b6bd eff7 a9bc baec 19bf

fc3.weight f4 [4, 400]
-0.5064171 0.5352001 0.09940308 -0.59991527 -0.09069797 -0.41949627 0.14366995 -0.0110774
0.071917035 0.16487052 0.37642777 0.5307186 0.7018866 0.96110725 0.35031575 -0.06299139
-0.45032933 0.45985827 -0.10575368 0.10402342 0.71035206 0.09832989 -0.14001584 0.12633893
0.0011440911 0.0033177475 -0.91921455 -0.124215245 -0.048941378 0.50460345 0.9400462 0.08741061
-0.49791154 -0.12486486 0.54497945 -0.58645284 -0.13382092 0.007890904 0.4724931 -0.4749605
-0.086820744 -0.0114347115 0.0663591 -0.73066777 -0.036012623 -0.03829282 0.08445435 0.085854016
0.100459754 0.09012418 -0.7142669 0.4958235 0.3269555 -0.020380357 -0.041719813 -0.03357996
-0.2360951 -0.2197357 -0.095971055 -0.045969892 -0.910618 0.04999994 -1.0458716 -0.1225569
-0.27088886 -0.10149976 -0.45897183 -0.120404616 0.6343691 -0.10299804 0.25261137 0.03040684
0.22069544 -0.33724713 0.021083083 0.17885073 -0.017218977 0.49975762 0.20683615 0.11353595
-0.2148262 -0.13176839 -0.017532757 0.21319067 -0.519222 0.2588914 0.9784682 0.04475044
-0.0009077684 -0.0195154 0.39054132 0.055385523 0.80813026 0.2140306 -0.6761168 -0.18859823
0.36359453 0.0499511 0.1470291 -0.21309957 -0.23647572 0.016379992 -0.06676822 -0.29297152
0.08404161 0.35494962 -0.033284776 1.115476 -0.26014146 0.019660058 -0.15544666 0.20275387
0.31332538 0.22386652 -0.045092996 0.034700498 0.013140422 0.1618987 0.8009396 0.027966607
-0.030808533 -0.618063 0.3986913 0.6162634 0.35374975 0.21798761 -0.12321079 0.05029862
0.4022681 -0.60903496 -0.11140642 0.035685368 -0.24789874 0.65338415 0.06503601 -0.1059129
-0.069209605 -0.077136695 0.018951138 -0.108593 -0.066780314 -0.22413461 0.079824105 0.006322832
0.039422676 -0.018611412 0.61724234 -0.7972819 0.44467407 0.23586003 0.010604599 -0.22597235
-0.14244196 0.0029861927 -0.67938 0.22560957 0.18472824 -0.048585832 0.10022467 -0.014281764
-0.0147627015 -0.024138764 0.024289183 -0.31452858 0.5110607 0.0076630693 -0.12744527 -0.26253232
-0.6609514 -0.17625697 0.49857366 0.15476303 -0.6910561 -0.028232241 -0.111227386 -0.043853696
1.2597656 -0.8169533 -0.12042119 -0.73051375 0.46403602 0.053843793 0.02418622 0.024831736
-0.57416975 0.05023753 -0.50361466 -0.021035457 0.05839766 -0.010228292 -0.40641692 -0.46722236
-0.06425115 0.66107064 0.09069059 0.18305284 -0.0378834 0.018803222 0.5429698 0.7690708
0.3246054 -0.6698674 -0.100506164 0.44067216 0.016433587 -0.061877586 -0.026509468 0.38653877
-0.3676866 0.5287008 -0.91399336 0.08398289 0.12359846 0.46118715 0.54542696 0.28498557
-0.05904153 -0.06700495 0.515769 -0.67371255 -0.06280675 -0.054968357 -0.45990542 0.0404076
-0.09327183 0.052314006 0.10854684 0.083329834 -0.34501737 -0.12157261 0.371684 -0.10853681
-0.34063104 -0.35350928 -0.3298409 -0.72779727 -0.28288656 0.24514464 -0.0043815263 -0.0052539078
1.1135577 -0.03495687 -0.49776205 -0.079024695 -0.028558249 -0.2754686 -0.6737794 0.07704752
0.2267772 0.42657506 0.057363383 -0.054183304 0.04091714 -0.018460346 -0.12440174 -1.3827521
00000000: 8da4 01bf e002 093f d893 cb3d 0c94 19bf
00000010: dbbf b9bd 37c8 d6be 371e 133e fc7d 35bc
00000020: 3d49 933d d1d3 283e 24bb c03e 2ddd 073f
00000030: d7ae 333f 200b 763f 965c b33e a101 81bd
00000040: 9191 e6be 8b72 eb3e 6395 d8bd 3b0a d53d
00000050: a2d9 353f 2e61 c93d 5060 0fbe fe5e 013e
00000060: 54f5 953a 916e 593b a551 6bbf 9064 febd
00000070: c176 48bd b12d 013f dea6 703f 5504 b33d
00000080: 43ee febe 26b9 ffbd c683 0b3f c621 16bf
00000090: 5a08 09be da48 013c 9eea f13e 062e f3be
000000a0: 13cf b1bd a858 3bbc 48e7 873d 0b0d 3bbf
000000b0: f981 13bd efd8 1cbd 67f6 ac3d 3bd4 af3d
000000c0: d8bd cd3d 0793 b83d 32da 36bf 94dc fd3e
000000d0: b666 a73e b5f4 a6bc 65e2 2abd 248b 09bd
000000e0: eac2 71be 6502 61be 798c c4bd ed4a 3cbd
000000f0: 431e 69bf bdcc 4c3d 1fdf 85bf 1dff fabd
00000100: f2b1 8abe 1bdf cfbd 5bfe eabe b296 f6bd
00000110: 0366 223f a3f0 d2bd 4756 813e c417 f93c
00000120: fcfd 613e a8ab acbe 6eb6 ac3c a524 373e
00000130: d00e 8dbc 3be0 ff3e dbcc 533e 8985 e83d
00000140: 66fb 5bbe 4bee 06be dba0 8fbc a84e 5a3e
00000150: bceb 04bf 6a8d 843e e47c 7a3f 3d4c 373d
00000160: 4ef7 6dba c3de 9fbc 08f5 c73e eedb 623d
00000170: a0e1 4e3f d62a 5b3e fe15 2dbf e51f 41be
00000180: 1029 ba3e 8699 4c3d cc8e 163e c636 5abe
00000190: b126 72be 552f 863c c7bd 88bd 5d00 96be
000001a0: 021e ac3d f5bb b53e 9e55 08bd ebc7 8e3f
000001b0: 4331 85be 210e a13c 692d 1fbe b69e 4f3e
000001c0: 2f6c a03e 443d 653e 6fb3 38bd 1c22 0e3d
000001d0: ed4a 573c c6c8 253e 610a 4d3f 3a1a e53c
000001e0: 2d62 fcbc 6039 1ebf 4421 cc3e 70c3 1d3f
000001f0: b01e b53e 2538 5f3e f055 fcbd ed05 4e3d
00000200: 16f6 cd3e b7e9 1bbf 0d29 e4bd d22a 123d
00000210: 2bd9 7dbe 2f44 273f 9a31 853d dde8 d8bd
00000220: c4bd 8dbd d8f9 9dbd 6b3f 9b3c 0266 debd
00000230: 1ec4 88bd 8b83 65be d27a a33d c22f cf3b
00000240: ac79 213d f676 98bc 9803 1e3f ab1a 4cbf
00000250: 52ac e33e 4b85 713e e9be 2d3c 4c65 67be
00000260: 4edc 11be 00b4 433b d9eb 2dbf 3206 673e
00000270: 6629 3d3e f001 47bd 9742 cd3d 0ffe 69bc
00000280: 42df 71bc a8be c5bc 1cfa c63c e409 a1be
00000290: e0d4 023f 7c1a fb3b 0381 02be a36a 86be
000002a0: 1c34 29bf b57c 34be 0c45 ff3e 337a 1e3e
000002b0: 0de9 30bf 4d47 e7bc 2fcb e3bd ef9f 33bd
000002c0: 0040 a13f da23 51bf 639f f6bd f302 3bbf
000002d0: 2196 ed3e 4f8b 5c3d 2e22 c63c ed6b cb3c
000002e0: cafc 12bf dec5 4d3d e4ec 00bf 8d52 acbc
000002f0: 6232 6f3d 9194 27bc e115 d0be c537 efbe
00000300: 1b96 83bd ed3b 293f fdbb b93d 3472 3b3e
00000310: a02b 1bbd 3709 9a3c 1200 0b3f d3e1 443f
00000320: ae32 a63e 6e7c 2bbf 2dd6 cdbd c89f e13e
00000330: bb9f 863c 5a73 7dbd 622a d9bc 69e8 c53e
00000340: 6b41 bcbe f058 073f 78fb 69bf 39ff ab3d
00000350: 3021 fd3d b920 ec3e 1aa1 0b3f a1e9 913e
00000360: 88d5 71bd e439 89bd 7009 043f 6d78 2cbf
00000370: d3a0 80bd 8026 61bd b978 ebbe 7182 253d
00000380: 4d05 bfbd 3647 563d ce4d de3d d5a8 aa3d
00000390: 1ea6 b0be 10fb f8bd 5e4d be3e 8c48 debd
000003a0: 3167 aebe 2bff b4be e8e0 a8be ec50 3abf
000003b0: 82d6 90be 3207 7b3e e892 8fbb f928 acbb
000003c0: 0f89 8e3f ef2e 0fbd abda febe b3d7 a1bd
000003d0: fdf2 e9bc 380a 8dbe cf7c 2cbf 17cb 9d3d
000003e0: 4838 683e 0c68 da3e def5 6a3d 50ef 5dbd
000003f0: bb98 273d 273a 97bc 57c6 febd 05fe b0bf

fc3.bias f4 [4]
-0.086980365 0.11576343 0.026151594 -0.056084905
00000000: c322 b2bd 6115 ed3d de3b d63c 49b9 65bd
