critic_final.pth (torch, 706239 bytes, 5 tensors)

fc1.weight f4 [400, 33]
000000 70 84 85 3e 8a 4e 6a 3e e0 2c 4f be b1 cd e0 be
       0.26077604 0.22881523 -0.20231962 -0.4390693
000010 13 1e d7 3d 60 73 22 bf 78 1d 02 3e 9b 8b 6c 3e
       0.10503783 -0.634573 0.12706554 0.2310013
000020 fa c0 10 be f5 7f d4 bd 8e fb 44 3e ac 64 c1 3e
       -0.14136115 -0.10375968 0.19236585 0.3777212
000030 9a d1 d2 3d 99 58 89 3e e3 a9 9d be d5 e2 e2 be
       0.102938846 0.26825407 -0.30793676 -0.44313684
000040 a6 39 18 3f 14 ec 04 3e 19 ee bb bd 48 b7 3d bd
       0.59462965 0.12980682 -0.09176273 -0.04631737
000050 c8 09 c1 3c 7f 2a 1c 3c 0d 47 50 be 54 c5 8c be
       0.023564234 0.009531616 -0.20339604 -0.274943
000060 df 97 b8 bd 4f f5 92 be ab 75 cb bd c1 a2 bc 3f
       -0.09013342 -0.2870278 -0.09934553 1.4737169
000070 71 d6 d1 3e 50 e0 fa bd b5 a1 97 bf 45 05 8d bd
       0.40983918 -0.122498155 -1.1846224 -0.06885771
000080 f8 73 97 be 22 1a 97 3d f8 e0 8a bd e8 07 44 3c
       -0.29580665 0.07378031 -0.06781191 0.011964776
000090 72 18 89 3e d6 86 b1 3e 68 f2 de 3d 29 93 6f 3d
       0.26776463 0.34673184 0.10886079 0.058489952
0000a0 55 dc e3 bc 99 87 81 3c c8 b3 0d 3d 63 8d e8 3c
       -0.027815023 0.015811728 0.03459528 0.028387731
0000b0 f5 0e 35 3c 64 33 84 3c 52 4e 80 3d 88 a2 7e bb
       0.011050929 0.016137786 0.062649384 -0.00388542
0000c0 a2 35 eb bc b2 70 ea 3d 3b be f0 3c 6a 31 c8 bc
       -0.028712098 0.11447276 0.029387584 -0.024437625
0000d0 8c ec 99 3c fa ff 8b 3c 58 2f 4f 3d f2 61 38 bb
       0.018789552 0.017089833 0.05058226 -0.0028134552
0000e0 d2 5b fd 3d c0 59 27 bc 92 83 32 3d c9 7a a6 bd
       0.12371029 -0.010214269 0.043582506 -0.08128888
0000f0 c8 5e 6e bf 5c b3 e0 bd 20 49 f0 bc f8 c6 38 3f
       -0.93113375 -0.1097171 -0.029331744 0.721786
000100 f4 70 31 3d fc bb 0f 40 e0 cf af 3d 0b c2 1e 3f
       0.04332061 2.2458487 0.08584571 0.62014836
000110 5c 59 2d 3e 2a f7 0c bf c7 f1 2a 3f d4 3c 85 bf
       0.16928619 -0.5506464 0.6677517 -1.0409188
000120 dc 1f 8e 3f 90 c2 d6 bd b6 82 9e bd c5 b3 cb bd
       1.1103473 -0.104863286 -0.07739775 -0.09946398
000130 c2 13 86 3d 07 ca dc 3e 7c 62 32 bd 59 f2 9c 3d
       0.06546737 0.43122885 -0.043550953 0.07663412
000140 1b af 2f bd 4e 15 21 be 9b ef 15 be 32 61 72 bd
       -0.042891603 -0.15730783 -0.14642183 -0.059174724
000150 94 bc 06 3e 2c 62 ce be 90 56 aa 3e 2f e4 9a be
       0.13157874 -0.40309274 0.33269167 -0.30252215
000160 e1 7b e5 be e1 a6 27 3e 8d 8c d7 3c c1 16 3f 3c
       -0.44821075 0.16372253 0.026312137 0.01166314
000170 53 40 73 3c a9 25 4b 3f c7 e7 e6 be 74 27 2a 3e
       0.014846879 0.7935434 -0.45098707 0.16616613
000180 af 34 46 bf 80 f4 23 3b 3b a6 b3 3e c7 bb 81 3d
       -0.7742414 0.002501756 0.3508776 0.06334644
000190 fb 99 8c 3e a8 58 41 be 54 43 87 be d8 99 2c bd
       0.27461228 -0.18881476 -0.26418555 -0.042138904
0001a0 25 22 1b 3f f0 f5 af 3e 5c 52 db be 49 d7 7c 3e
       0.60598975 0.34367323 -0.42836273 0.246915
0001b0 3e 2a 68 3e f9 d4 a3 be 48 fc 9e 3e 13 20 3e be
       0.22672364 -0.31998423 0.3105185 -0.18566923
0001c0 f1 af b1 be 34 7a 84 3e 2d f0 49 3e 67 01 14 3e
       -0.34704545 0.25874484 0.19720526 0.1445366
0001d0 6b f0 d1 3e e2 4a 89 3e 4d fc 6c 3f 00 9c 12 be
       0.41003737 0.26814944 0.9257248 -0.14317322
0001e0 cf 55 85 3e ef d7 d6 3e 35 c5 fd be c8 9c 5f be
       0.2604203 0.4196162 -0.4956452 -0.21837151
0001f0 a5 2b 85 3e 73 4f a3 bd f4 18 78 3f 2a 23 7c bc
       0.2600986 -0.07974138 0.96913075 -0.015389243
000200 80 d6 62 bd b6 22 72 bf a2 52 90 bd 55 5d dd be
       -0.055380344 -0.94584215 -0.07047011 -0.4323527
000210 2b bf 3b be 4c fd 3d bd 82 5e a9 be e4 a6 48 be
       -0.18334644 -0.04638414 -0.33079916 -0.19594914
000220 8e f5 17 3e 09 b4 19 3f ac e8 b8 3d 50 ac 30 3e
       0.14839765 0.60040337 0.09028754 0.17253232
000230 ae 7c 63 be 0d 66 4c 3d 31 d8 dc 3d 9c e8 40 3e
       -0.2221553 0.04990201 0.10783423 0.18838733
000240 96 58 1a be 0e e7 b3 3d 89 b3 2d 3e ab 40 0b be
       -0.15072855 0.087843046 0.16963018 -0.13598888
000250 e2 56 8c 3e ed ac 82 be 69 b1 4e bc f1 4a 0e be
       0.27410036 -0.25522557 -0.01261554 -0.13895775
000260 37 cd 10 be fe d1 0c 3d 96 a9 50 be 76 f8 2d 3e
       -0.14140783 0.03437995 -0.20377192 0.16989312
000270 6e 9f a5 bd cb 4c 61 bd d6 5b b7 3e e1 79 92 3e
       -0.080870494 -0.055004876 0.35812253 0.2860861
000280 39 d8 91 3d 90 a3 1b 3e d9 d8 f2 bd a4 88 09 3e
       0.07121319 0.15199113 -0.11857767 0.1343103
000290 7d 7b ee 3e a7 eb 16 be a5 34 84 3e 0d a7 b4 bc
       0.4657859 -0.14738332 0.25821415 -0.022052312
0002a0 a8 17 ca 3c 38 64 3a be 98 fc 2f 3f 3a 69 1e 3f
       0.024669483 -0.18202293 0.687448 0.61879313
0002b0 93 76 4b bd db e6 8b 3d a6 a1 90 3d 75 1e 3a bd
       -0.049673628 0.068311416 0.07062082 -0.045439202
0002c0 af 38 9a 3d af fe 57 3d 8c 49 4e 3d 51 d8 ec bd
       0.07530343 0.05273312 0.05036311 -0.115646966
0002d0 54 97 12 3c 57 79 59 3e 9e 73 73 3d 58 d7 a5 3e
       0.008947212 0.21237694 0.059436433 0.32390857
0002e0 59 86 a3 3d 9a 8c a9 3d e9 3d d5 bd 7a 4b 47 be
       0.07984609 0.08278771 -0.10412199 -0.19462386
0002f0 b2 6c 23 3e 60 30 c3 3c a5 1a 89 bb 7d 6f d5 3c
       0.15959433 0.023826778 -0.0041840845 0.026054138
000300 8c 2d 9c 3f 2a 0b ee 3b 88 93 cb bc 0f bf 93 bf
       1.22014 0.0072645145 -0.024850622 -1.1542681
000310 14 c1 a6 3d d2 06 9f 3d 2d d2 f3 3d 87 88 fe 3d
       0.081422955 0.07764973 0.11905322 0.12428384
000320 0d b8 5e 3d 08 43 80 3d 4a a9 0e 3e 7e 4a 50 be
       0.054374743 0.06262785 0.13931766 -0.20340917
000330 2e e6 d3 3e 88 c9 05 be d4 0a 3f bc 21 ca a2 3d
       0.4138655 -0.1306516 -0.0116602965 0.07948709
000340 09 af bf bd c7 df 27 bb e4 65 d6 3c 3f bb c1 bd
       -0.09359557 -0.002561556 0.026171632 -0.094595425
000350 f8 6d a2 3c c0 38 ee bd 0b 56 d9 3e 3f 5b 89 be
       0.019827828 -0.11631918 0.42448458 -0.26827428
000360 f2 85 92 3c 2f fd b4 bd 68 86 8b bd 33 ff db 3d
       0.017886136 -0.088373534 -0.06812745 0.10742035
000370 70 ac c2 3d 64 ff e6 3c 3f d9 2c bc 08 a8 98 3b
       0.09505546 0.028197952 -0.010549842 0.0046587028
000380 05 a9 ca 3a 5f 08 76 3f 50 38 6a 3c 82 83 d2 bd
       0.0015461749 0.96106523 0.0142956525 -0.102789894
000390 85 58 42 bf b9 f6 b8 bd 78 08 9a 3e 82 ae 59 3e
       -0.7591632 -0.090314336 0.30084586 0.21257976
0003a0 ef 0e 09 bc 51 fb db 3d 40 bf 19 bf cc 3e a1 be
       -0.008365377 0.10741294 -0.6005745 -0.31493223
0003b0 ba d1 c2 3e 5a ea 77 3e cb bc bd 3c e5 f0 cb 3e
       0.38050634 0.24210492 0.023161313 0.39832225
0003c0 43 68 be 3c 5a df 8f 3d 52 a0 9b 3d 46 8e 33 bd
       0.023243075 0.07025023 0.07598938 -0.043836854
0003d0 3a 08 77 bc 19 6c 73 3e cb e8 20 be fd 8c 3c 3e
       -0.015077645 0.23771705 -0.15713803 0.18413158
0003e0 9e a4 e3 bd 43 73 92 bd 3e 09 cd 3d c3 e3 1b be
       -0.111153826 -0.07150891 0.100115284 -0.15223603
0003f0 51 16 ee bd fb 61 e6 3b e6 c6 80 bd 35 2b 51 bc
       -0.1162535 0.007030723 -0.06287937 -0.012766649

fc1.bias f4 [400]
000000 c5 e5 94 bf 92 6a 52 3f 67 29 77 bf bb 13 24 bf
       -1.163262 0.82193863 -0.9654755 -0.64092606
000010 f3 2f 96 be 3e e4 99 bf 1a 63 82 bf 7a e6 79 bf
       -0.29333457 -1.2022779 -1.0186493 -0.97617304
000020 22 e0 7f bf 6e 1d 0c bf 7c a3 6f be df 06 95 bf
       -0.99951375 -0.54732406 -0.23402208 -1.1642722
000030 c6 cc 1a bf d1 b2 90 bf 76 4a 9d bf f5 13 7d be
       -0.6046871 -1.130457 -1.2288349 -0.24714644
000040 9a 34 6f bf 94 52 3b bf a0 b3 52 3e ef d6 41 bf
       -0.9343964 -0.7317288 0.20576334 -0.7571859
000050 97 10 24 bf ba cd 26 bf a6 9d be be 54 55 ad be
       -0.64087814 -0.65157664 -0.3722965 -0.33854163
000060 7e 18 6a bf f6 f0 27 bf 8f 38 e9 be 5c b7 7e be
       -0.9144362 -0.6560205 -0.45550963 -0.24874634
000070 53 45 88 bf d0 32 99 3e 7c 46 60 bf 40 b9 02 be
       -1.0646156 0.2992158 -0.8760755 -0.1276598
000080 3c 71 ee be 06 d3 a8 bf 85 91 bd be bf 0b d6 be
       -0.46570766 -1.3189399 -0.37025085 -0.41805837
000090 f0 50 a6 bf bb 0c a9 bf 30 a6 4e bf da 0b 70 bf
       -1.299345 -1.320701 -0.8072233 -0.93768084
0000a0 01 cb 77 bf 37 71 aa be 98 eb f0 be a8 6e aa be
       -0.96794134 -0.332895 -0.47054744 -0.3328755
0000b0 75 6b a0 bf d4 01 32 be 58 e1 9a bf cb 89 8c bf
       -1.2532793 -0.1738351 -1.210002 -1.0979551
0000c0 6e 87 65 bf a9 ac 42 3f fd dc d0 bd 4f 2a 43 bf
       -0.89659774 0.7604471 -0.101984 -0.7623643
0000d0 70 91 b8 be 2a 93 23 be df df 86 bf 4c c4 82 bf
       -0.3604846 -0.15974107 -1.053707 -1.0216155
0000e0 40 dc 5f bf 78 6a aa bf 5b 65 89 bf 75 f7 92 bf
       -0.8744545 -1.3313742 -1.0734056 -1.1481768
0000f0 8e 8e 3d 3e 15 1c 75 bc e8 18 60 bf 82 59 0c bf
       0.18511412 -0.014960309 -0.87538004 -0.5482408
000100 31 1a 95 bf 05 97 31 bf 96 74 8b bf 69 da aa bf
       -1.1648618 -0.6937106 -1.0894954 -1.3347903
000110 53 75 d6 3d c6 c8 64 bf 91 e5 28 bf 62 a3 77 bf
       0.104715966 -0.89368856 -0.6597529 -0.9673368
000120 c5 44 80 bf f0 50 86 bf ca a6 8e bf 0c a5 e4 be
       -1.0020987 -1.049345 -1.114465 -0.4465717
000130 e5 32 36 be d0 58 7c bf 1a 13 80 bf 94 4c 9b bf
       -0.17792852 -0.9857302 -1.0005829 -1.2132745
000140 3e 99 64 bf c2 bc 64 bf 18 06 aa bf fc c3 4f be
       -0.8929633 -0.8935052 -1.328311 -0.20289606
000150 bd 0a dc 3e 46 a4 89 3e 63 a5 a6 bf de e6 9d be
       0.42976943 0.26883143 -1.3019222 -0.308402
000160 a6 83 de be be 69 8e bf 15 a9 93 bf 13 6e 85 bf
       -0.43459815 -1.112602 -1.1535975 -1.0424217
000170 2a 9b 1f bf f9 58 a4 be f6 ee 67 bf b4 b7 6a bf
       -0.62346137 -0.3209913 -0.90599 -0.9168656
000180 02 88 10 bf 75 a5 21 bf 8a 17 92 bf b5 7e bb be
       -0.5645753 -0.6314309 -1.1413434 -0.36620107
000190 e3 41 d8 bf 5b 6f 0f bf 6e de 80 bf 4b 35 ed be
       -1.6895107 -0.5602929 -1.006788 -0.46329722
0001a0 9b d1 f7 be 67 0b 97 be 9b 87 f2 bd 35 2b 5e bf
       -0.48402104 -0.29500887 -0.11842271 -0.8678468
0001b0 21 f6 9d bf d5 02 5c bf ce b8 1a be 3c e9 95 bf
       -1.2340738 -0.8594182 -0.1510956 -1.1711802
0001c0 57 c8 95 bf f4 58 ae be 0b 00 a2 bf 27 d6 86 bf
       -1.1701764 -0.3405224 -1.2656263 -1.0534104
0001d0 c7 48 0a 3f e4 de 0e bf ca 63 9f bf cd a6 de be
       0.540173 -0.55808854 -1.2452328 -0.43486634
0001e0 68 76 91 bf ae 4e 96 bf a3 cc 97 bf 53 79 1a bf
       -1.136426 -1.1742761 -1.1859325 -0.60341376
0001f0 56 bd 4f bf 7c 09 a3 bf 8a 73 a2 bf b3 0a b8 bf
       -0.8114828 -1.2737269 -1.269151 -1.4378265
000200 12 2d 89 bf 30 26 ac bf 2d dd 81 bf 77 db ba bf
       -1.0716879 -1.3449154 -1.0145622 -1.4598225
000210 24 bd 72 bf 80 36 86 bf 59 46 0a bf 11 9f 78 bf
       -0.94819856 -1.0485382 -0.5401359 -0.97117716
000220 8c b2 b6 be f6 93 93 bf 73 17 9f bf 7b f1 fc be
       -0.35683095 -1.1529529 -1.2429031 -0.49402985
000230 e9 3a a4 bf ce bf 85 bf 72 7f 8c bf e8 1d 6b bf
       -1.2830478 -1.0449159 -1.0976393 -0.9184251
000240 11 40 8b bf 3e 22 a0 bf 87 23 18 bf 31 5d d6 be
       -1.0878927 -1.251045 -0.5942921 -0.41867974
000250 97 80 a5 bf b7 7b b5 bf 08 c4 76 3f 62 9b 9d bf
       -1.2929868 -1.417838 0.9639287 -1.2313044
000260 2c 4a cb be 04 62 82 bf e3 a1 80 bf 7c 26 5b bf
       -0.39705026 -1.0186162 -1.0049404 -0.856056
000270 b3 48 dd be 9d f4 7a bf f7 d2 65 bf 19 eb 73 bf
       -0.43219528 -0.980295 -0.8977503 -0.95280606
000280 9a d2 45 bf e6 4f 3f bf ae 3b 8d bf 83 1d 61 be
       -0.7727448 -0.7473129 -1.1033838 -0.21983914
000290 79 e3 21 bf 3b 64 25 3e 90 51 a2 bf ca 4a b3 bf
       -0.6323772 0.16151516 -1.2681141 -1.4007199
0002a0 21 5d 9d bf bd 8e 9d be 86 53 89 bd c6 67 9f bf
       -1.2294046 -0.30772963 -0.06705384 -1.2453544
0002b0 b0 73 0c bf c1 2b 98 bf c1 a7 a2 bf d0 8a 35 bf
       -0.54864025 -1.1888353 -1.2707444 -0.70914936
0002c0 5a 1d 8a bf f5 86 53 bf a9 e0 ef 3e 28 7c b8 3e
       -1.0790207 -0.82627803 0.4685109 0.36032224
0002d0 25 30 22 bf 58 4f 34 be f3 40 8f bf 5d c0 b7 3e
       -0.6335471 -0.17608392 -1.1191696 0.3588895
0002e0 4f 8f 83 bf 35 22 81 bf e7 e3 88 bf 17 89 0c bf
       -1.0278109 -1.0088564 -1.069455 -0.5489668
0002f0 94 a8 57 bf 29 a4 e2 be f5 cf 0c bd dc 5e 14 3f
       -0.84241605 -0.4426587 -0.03437801 0.57957244
000300 e4 3b 52 be c6 3b 30 bf 9b 27 55 bf 61 73 92 bf
       -0.20530659 -0.6884121 -0.8326356 -1.1441461
000310 db 8d 93 bf 70 ec 6f bf df ef 29 bf 38 68 70 bf
       -1.1527666 -0.9372015 -0.6638164 -0.93909025
000320 88 a3 91 bf 5a cc 8f bf 54 e3 ec be 32 e7 5f bf
       -1.1378031 -1.1234238 -0.46267188 -0.8746215
000330 e1 e0 96 bd 95 17 9f bf e8 40 a0 bf da ea 86 bf
       -0.07367111 -1.2429072 -1.2519808 -1.0540421
000340 e6 d8 8f bf 9d 8f 53 bf 0f 29 2d bf 54 f1 aa bf
       -1.1238067 -0.8264101 -0.67640775 -1.3354897
000350 a0 8c 8c bf 40 aa 87 be 43 91 8d bf 1c a8 f0 3e
       -1.0980415 -0.26497078 -1.1059955 0.47003257
000360 1e da b6 be f9 38 bd bf 5a 75 ac be 60 46 66 bf
       -0.35713285 -1.4783012 -0.33683282 -0.89951134
000370 87 0f 93 bf 2c ee 90 bf d6 74 03 bf 36 2a ae bf
       -1.1489114 -1.1322684 -0.5135015 -1.3606632
000380 7e 0d bd bf b1 69 6b bf a4 5d 92 be 6c 25 88 bf
       -1.4769742 -0.9195815 -0.28587067 -1.063642
000390 39 88 96 bf 1b 0a e3 be 3b d4 79 bf 4c 95 15 bf
       -1.1760322 -0.44343647 -0.97589463 -0.58430934
0003a0 f5 a9 52 bf b3 6e 61 bf 5f a6 82 bf 98 da 9f 3e
       -0.82290584 -0.8805954 -1.0207022 0.3122146
0003b0 c8 c0 53 bf a7 68 cd bf 1a 03 92 bf ff 35 86 bf
       -0.82716036 -1.6047562 -1.1407197 -1.0485228
0003c0 ba 78 3b be 18 1b b3 be 0d 00 9a bf ff ff 0f bf
       -0.18307772 -0.34981608 -1.2031265 -0.56249994
0003d0 02 b0 7f bf 62 c1 89 bf 4d c4 a0 bf b3 c1 18 bf
       -0.9987794 -1.0762141 -1.2559906 -0.5967056
0003e0 5d 0a 60 be b5 12 11 3f 10 53 ec be 49 37 b6 bf
       -0.21878953 0.5666917 -0.46157122 -1.4235622
0003f0 7d f3 59 bf ec 6c 97 bf 29 81 ce be d6 78 b4 bf
       -0.8513716 -1.1830115 -0.40332916 -1.4099376

fc2.weight f4 [400, 404]
000000 3d b3 5a 3c b9 a4 65 bc 77 73 45 3c 37 15 3a bc
       0.013348398 -0.014016324 0.012051455 -0.011357597
000010 f9 e0 53 bc 5f ec da 3c e0 ad bf bc 49 e8 ad bc
       -0.012932056 0.026724039 -0.02339834 -0.021228926
000020 55 73 3c b9 86 f2 ba 3c 8d 64 e8 bc fe 9e 41 bd
       -0.00017972042 0.022820722 -0.028368259 -0.047270767
000030 b3 af c5 3c 55 77 8b bd 5a 19 02 3d f4 14 39 bd
       0.024131631 -0.0680987 0.03176246 -0.045185998
000040 5c e0 de bd 86 fd d5 3b 26 86 5d bc a9 95 96 bb
       -0.10882637 0.0065304665 -0.013520753 -0.0045954776
000050 db 74 18 bd 23 3c 4c bc 17 9c 91 3c ac c5 fd bc
       -0.037220817 -0.01246551 0.017774625 -0.030978046
000060 25 94 df 3c ba c7 95 bc e9 53 10 bd 2e 5d cd bd
       0.02729232 -0.018283714 -0.035236273 -0.10027538
000070 b5 dc 20 3c cf 08 7f bd e3 e8 a3 3c 0b 92 19 bd
       0.009818246 -0.06226426 0.02000851 -0.037492793
000080 3c 16 70 bd 76 f0 df 39 cb 3f 8b bd dd 65 be 3c
       -0.058614954 0.00042713032 -0.06799277 0.023241932
000090 ca b2 0d 3d 09 36 b0 bb 4a 84 aa bd 00 49 b6 bc
       0.034594335 -0.0053775352 -0.083260134 -0.022251606
0000a0 a3 c4 e1 bc a2 7e f8 bc 45 39 8b bc 6a 85 62 bd
       -0.027559584 -0.03033382 -0.016995082 -0.055303015
0000b0 5d e7 4a bd 67 ce b8 3b a4 78 5b bd 77 76 2d bd
       -0.04953705 0.0056398395 -0.05358185 -0.042349305
0000c0 62 89 2d 3d 78 c5 1b 3d 0b eb b7 3c 12 eb 8c bc
       0.042367347 0.038030118 0.022450944 -0.017201934
0000d0 8f 1d 5e bd ae a7 ce bd 3a 53 38 bc 9d 6d 5b 3c
       -0.054227408 -0.10090576 -0.0112503115 0.013392833
0000e0 b9 85 b2 bc ae 47 c4 3c b3 b2 d8 bc 97 cf 32 bd
       -0.02179228 0.02395996 -0.026452398 -0.043655004
0000f0 a6 38 e6 bd ce 03 ce 3c 87 7d ce bc 02 5e e7 ba
       -0.112412736 0.025148299 -0.02520634 -0.0017651918
000100 76 e9 91 bd 08 88 36 bd d3 90 6a bd 8b dd 09 bd
       -0.07124607 -0.044563323 -0.05726702 -0.033658545
000110 6c 2c 91 bd a6 6c 0c 3d fe 13 49 bd a2 8f 2f 3c
       -0.07088551 0.034283303 -0.04909133 0.010715397
000120 7f 3e 55 bc e9 06 21 bd 26 49 69 bd e2 f6 f7 bb
       -0.0130153885 -0.03931323 -0.056954525 -0.0075672725
000130 c1 ed c0 bd 77 0f de 3c c1 dc f6 3b 3b 52 70 3d
       -0.09420348 0.027106984 0.00753364 0.05867217
000140 0b 18 4c bd 7c 8d 3c 3c 53 f8 16 3d 04 2d 06 3c
       -0.049827617 0.011508342 0.036857914 0.0081894435
000150 39 af d7 3c ea 59 76 3d 16 76 8f 3c 45 96 0c 3d
       0.02632867 0.060144342 0.017512362 0.034322996
000160 c7 ec 0f bc 51 24 64 3b 23 eb b6 3c c5 68 88 bd
       -0.008784479 0.0034811685 0.022328919 -0.06660608
000170 58 47 98 bd 7f 9f 80 3c b2 f9 44 bc 4b b6 87 3c
       -0.07435483 0.015701054 -0.012022423 0.016566416
000180 67 87 30 bd fe ae 13 3c 35 04 ac bd 5a 6f b3 bc
       -0.04309788 0.009013889 -0.0839924 -0.021903683
000190 da be 82 bd 94 fe 21 be 15 70 b4 3c f8 5d 26 bd
       -0.06384058 -0.1581977 0.022026101 -0.04061696
0001a0 3a b8 e5 bb 0f 6d ef 3b e2 b3 ce bc 68 ad e4 3c
       -0.007010487 0.007306702 -0.02523226 0.027914718
0001b0 64 e6 6b bd 80 40 59 bd 72 6c bd bc 2d b1 ac 3c
       -0.057592764 -0.053040028 -0.023123 0.021080578
0001c0 9d 23 3d bd d7 b4 79 3c 09 04 f9 3c da 53 18 3d
       -0.04617654 0.0152408695 0.030397432 0.037189342
0001d0 58 96 00 bc ef 19 54 3d 53 73 a8 bc 0d 04 6e bd
       -0.007848345 0.051782545 -0.020562803 -0.058109332
0001e0 20 7c 49 bd ce 8c 15 3c fd 4c 55 3b 19 7e 1e 3d
       -0.04919064 0.009127809 0.003254711 0.038694475
0001f0 0e 40 81 bd f7 3c c3 39 67 3b ff 3a 02 8c b2 3c
       -0.063110456 0.0003723872 0.0019472659 0.021795277
000200 26 6b 0b bc 17 05 59 3c 9f 67 98 bd 0e b4 46 3b
       -0.008509433 0.013245842 -0.07441639 0.0030319723
000210 55 6c e0 3c 31 fd 52 bd 1f 04 76 bd 22 f1 20 bd
       0.027395407 -0.051510993 -0.060062524 -0.039292462
000220 1a c9 e3 bd 32 19 0e be fc 67 8a bc 5e aa d4 3c
       -0.111223415 -0.13876799 -0.016895287 0.025960144
000230 f2 44 d7 bb 97 04 e5 bd 36 c7 b0 3c 6f 45 d8 bc
       -0.006569498 -0.11182516 0.021579366 -0.026400296
000240 66 ff 1f 3d 73 d4 ea bc 83 98 20 be 03 f0 de bc
       0.039061926 -0.028665757 -0.15683179 -0.027214056
000250 16 fb 68 bc 7e d9 8c 3d ea bb cb bd a9 30 c1 3c
       -0.01422002 0.06877421 -0.09947951 0.023582773
000260 84 36 62 bd 70 85 6f bb 68 93 ef bc a6 49 82 3c
       -0.05522777 -0.003654804 -0.029245093 0.015904259
000270 de e9 4c bc 10 c0 dc bc c9 d3 5c bd 89 f2 ef bb
       -0.01250693 -0.026947051 -0.05391291 -0.0073226136
000280 f1 c6 b2 3c fa d8 f0 3c 19 5c ab bd 37 f6 49 bd
       0.021823378 0.029400337 -0.083671756 -0.049307074
000290 f5 e1 ce bc 2d 41 87 bd 7e 5d 86 bc 81 88 a6 3b
       -0.02525423 -0.06604228 -0.016402002 0.0050821905
0002a0 1e a1 0d 3d 49 c7 e1 bc 98 e2 08 bd ff d1 5d 3d
       0.03457748 -0.027560847 -0.03341922 0.054155346
0002b0 46 0f 6a bc d2 5c 2a be 5e 2d 59 bd 30 03 72 bc
       -0.014285868 -0.1663697 -0.05302178 -0.014771268
0002c0 e3 4e 46 3d ba 43 60 bc e9 29 00 be 27 bc 7b bd
       0.048415076 -0.013688022 -0.12515987 -0.061458733
0002d0 7d ec ea 3a f1 40 f8 bc e0 35 a7 bc ff fb 1d bd
       0.0017923262 -0.030304404 -0.020411432 -0.0385704
0002e0 0d 7f 67 3d 12 1b 02 bd 18 71 d9 bc ad f8 87 bc
       0.05651765 -0.031764098 -0.026543185 -0.01659807
0002f0 8c 35 10 bd d0 e9 96 bc 19 f5 67 3b b9 c1 e9 3c
       -0.035207316 -0.018422037 0.0035393892 0.028534757
000300 ac c2 06 bd 91 9b f6 bd 78 fc 2b 3d e9 93 7d 3c
       -0.032900497 -0.12041391 0.04198882 0.015477159
000310 a9 11 30 3d d6 e9 20 bd c5 e8 03 be b1 30 09 bd
       0.042985592 -0.039285503 -0.12881763 -0.0334937
000320 87 00 1f bb a7 2d 1f 3c 94 fe 99 bd 43 4e e0 3c
       -0.002426179 0.009715474 -0.0751926 0.027381068
000330 90 a7 c2 bb 8e f9 13 bd b6 dc 19 be ea f8 45 bd
       -0.005940385 -0.036126666 -0.15025601 -0.048333086
000340 86 09 02 bd a0 a1 8f 3c 69 da 2c 3d 11 6d 7b bd
       -0.031747364 0.017533123 0.04220048 -0.06138331
000350 93 70 47 bd e0 6a 29 bc de f6 06 bd 3d 39 c2 bc
       -0.048691344 -0.010340422 -0.032950275 -0.023708934
000360 14 0f 95 bc 2a 49 b6 3c 44 6f 88 3b 08 bb e8 3c
       -0.018195666 0.022251684 0.0041636545 0.028409496
000370 8a cf 63 bc b3 aa f1 bc c8 81 e1 3b 8e 92 d9 bc
       -0.013904462 -0.029500341 0.006881926 -0.02655914
000380 77 50 2b 3d 31 7d c1 bd e0 67 53 3c bd 36 bf 3a
       0.041824784 -0.094477065 0.012903184 0.0014588457
000390 de 1c 0e bd ae 1f db bc af ac d8 3c 14 d4 f6 bb
       -0.0346955 -0.026748504 0.02644953 -0.007532606
0003a0 84 a1 09 bd 3d 35 38 bb 79 c5 9b 3c f3 0f d1 ba
       -0.0336013 -0.0028107904 0.01901506 -0.0015950188
0003b0 ae b2 b1 3d 09 ab 21 bd 63 4e 15 3d 9d bd a0 3c
       0.086766586 -0.039469752 0.03645171 0.019621665
0003c0 ef 7f 11 bd 63 a3 c6 bb ee df 9f bc cf 2d 0d bc
       -0.035522398 -0.0060619577 -0.019515958 -0.008616879
0003d0 ed b0 6d 3d 78 98 0a bc 4a 86 a3 bc 91 e3 2f 3c
       0.058030058 -0.008459203 -0.019961495 0.010735408
0003e0 d5 89 00 3d 1e 0a 8b bd 9a 31 e6 3c 01 b8 0e bc
       0.031381447 -0.06789039 0.028099824 -0.008710862
0003f0 91 1b 28 bc 0d be 11 3c 0c 4f ae 3d d3 50 22 3d
       -0.010260479 0.008895409 0.08511171 0.03962786

fc2.bias f4 [400]
000000 ac 85 8b bb 6f da af bd f3 cb 37 bd a2 6b 1c 3f
       -0.0042578783 -0.08586585 -0.044872236 0.61101735
000010 d1 8c 9f be f3 9a bf bd 94 3c 20 bc 75 27 b7 bc
       -0.31162122 -0.09355726 -0.009780068 -0.022357682
000020 31 04 50 bd d5 79 22 3e da 0a 83 bd 2c 0c c4 bc
       -0.050785247 0.15866788 -0.06398554 -0.023931585
000030 b7 fe 27 3f a5 f5 29 3c 1f 1d 69 3f 2a 33 74 3b
       0.6562304 0.010373508 0.9106006 0.0037261941
000040 c8 8e 1c 3f 90 b2 fd be 31 32 8a 3a ff 9e 04 bc
       0.61155367 -0.49550295 0.0010543523 -0.008094548
000050 8b 6e 64 bd 35 c0 69 bd 06 55 6f be 85 60 50 3f
       -0.055769484 -0.05706807 -0.23372278 0.8139728
000060 80 02 e2 be e9 0b d2 bc 23 da 67 bc df 4e 43 bd
       -0.44142532 -0.025640445 -0.014151129 -0.04768264
000070 3e 39 c5 bc 52 b6 12 be bb 37 73 bd f0 d0 50 bd
       -0.024075147 -0.14327362 -0.05937932 -0.05098051
000080 48 dd 24 bf dc b6 3c 3f 69 ad e3 3b 72 f8 8f bd
       -0.6440015 0.7371652 0.0069481623 -0.07029809
000090 96 90 48 bd 15 01 db 3d ed d3 bc bd cc 07 3d bd
       -0.048966013 0.10693566 -0.09220109 -0.046150014
0000a0 c2 06 c9 bd 25 06 9c bd b1 aa d1 3c 7a 24 42 be
       -0.09815742 -0.076183595 0.025594087 -0.18959227
0000b0 80 49 05 3f 00 3f ac bd 5b 3e 19 bd 0a c2 5d be
       0.5206528 -0.08410454 -0.037412982 -0.21656051
0000c0 3a bc 0d be 08 cb e6 bc 35 a9 f5 3c b7 e5 7b bd
       -0.13841334 -0.028172985 0.02998791 -0.06149837
0000d0 01 b6 f9 bd f9 23 cd bd 5a 8e 25 3c fb 3e 9e bd
       -0.121929176 -0.10016627 0.01010474 -0.07726856
0000e0 7e 12 24 be d9 8c 05 3f d2 b4 8e be 72 2d d1 bd
       -0.16022679 0.5216804 -0.2787233 -0.10213746
0000f0 fc 9a a4 3f 8f 17 10 3f 25 6d 1d 3c c0 57 ed bc
       1.2859797 0.5628595 0.009608542 -0.028972507
000100 ef 38 35 bd 3c 42 1d 3f 0e c7 0f bc 41 ef 34 bd
       -0.04424375 0.6142919 -0.008775486 -0.044173483
000110 d1 ae 80 3f 63 f3 a9 bd 4e b2 14 bd 86 64 79 bd
       1.005335 -0.082983755 -0.036302857 -0.060886882
000120 14 17 9b bd ae 25 05 be d7 17 2b bd be ab f0 be
       -0.07572761 -0.13002655 -0.041770782 -0.4700603
000130 a8 3f aa bc 1f 9c 67 bd 60 a4 4d bd d6 2e 92 3f
       -0.020782307 -0.056545373 -0.05020559 1.1420543
000140 1f 87 b1 bd 3f 4d 07 be ab 42 17 bc 83 e3 73 bc
       -0.086683504 -0.13213061 -0.0092322035 -0.014885786
000150 4b dd 07 bd dd 90 6d bc 1b d1 af bd 58 ab 8f bd
       -0.033170026 -0.01449987 -0.085848056 -0.07015103
000160 72 5a e5 39 31 4d 08 3c 31 23 05 3f 9e 8e 49 bd
       0.0004374567 0.008319185 0.5200682 -0.049208276
000170 65 ba 23 bd fb 49 8b bc 1c a8 3d be 1d 15 3e bd
       -0.03997268 -0.01700305 -0.1852116 -0.046406854
000180 91 94 8b bd 07 32 fa bc c3 01 11 bd 8e 2b 3a bd
       -0.06815446 -0.030541433 -0.03540207 -0.045451693
000190 2d c7 bd bd c9 c4 91 3d 0c 0f 30 bd 67 83 0e 3f
       -0.092665054 0.07117612 -0.0429831 0.55669254
0001a0 71 fe ac bd c9 f0 e4 bd 41 24 fe 3e 17 c4 77 3c
       -0.08446968 -0.111787386 0.49637035 0.015122435
0001b0 25 cb 40 bd 37 a1 68 3c e6 b2 3a bd 6f b9 64 3c
       -0.047068734 0.014198593 -0.045580767 0.013960226
0001c0 07 3d 9e bc 1b 73 17 bd 95 f3 02 be 28 bf e3 bc
       -0.01931621 -0.036975008 -0.12788232 -0.027801111
0001d0 25 f3 34 3c cc a6 55 3e 29 15 56 bd 68 c5 d1 bd
       0.011044298 0.20864409 -0.052266274 -0.102427304
0001e0 54 4f 28 3e 3c 99 46 bd 54 6b f2 bc 2e ce e8 bc
       0.16436511 -0.04848598 -0.029592194 -0.028418627
0001f0 1e 95 92 bd 23 25 e3 bd ff 69 e1 bd dd eb 0b be
       -0.07157348 -0.11091068 -0.11006545 -0.13664193
000200 fd 69 66 bc 70 62 9a bc ac ff 6e 3b 71 fb ef be
       -0.0140633555 -0.018845767 0.003646831 -0.46871522
000210 82 7e f0 bb 0d 91 94 bd b2 f6 12 3e e5 14 7f bc
       -0.0073392997 -0.07254229 0.1435192 -0.0155689465
000220 94 00 f6 3a 9b d5 64 bd b6 35 8e 3e d5 94 a9 bd
       0.0018768483 -0.055867773 0.27775353 -0.082803406
000230 ed 07 a1 bd a0 2e 2e 3d 07 dc 80 bb 67 17 2d bb
       -0.0786284 0.042524934 -0.0039324793 -0.0026411654
000240 77 02 67 3b 1c 5f 42 3f 90 b1 cf 3b 74 c7 fe bc
       0.0035249272 0.75926375 0.006338306 -0.031100966
000250 6f 95 2c bd ba f5 f1 bd a9 8f 7d bf 4c f2 81 ba
       -0.0421347 -0.11814447 -0.99047333 -0.0009914129
000260 2f 0d d9 bc 67 33 f2 bb eb ed 81 bd 1a 5e c7 bc
       -0.026495544 -0.0073913815 -0.063442074 -0.024336863
000270 df ff 69 bf a1 48 ce bd 2b db 1d 3f a8 7d ac bd
       -0.91406053 -0.100724466 0.6166255 -0.084224045
000280 c0 3e d0 3b 7b d8 a0 3c 26 b4 d9 3d 15 fd a0 bd
       0.0063551366 0.019634476 0.10630064 -0.078607716
000290 e1 cc 16 bd 5c 6b 0a bc a2 01 b4 bd 5c 2c 83 bd
       -0.03681648 -0.008448448 -0.08789374 -0.06404945
0002a0 a2 c8 83 bd 11 29 98 3c 13 44 3c be 10 25 90 3c
       -0.06434752 0.01857427 -0.18385343 0.017595798
0002b0 e6 07 b6 bd 9c b5 33 3f 64 df 4b be b2 57 56 bd
       -0.08888225 0.7019899 -0.19909436 -0.052329727
0002c0 24 20 0d be 70 3e 06 3d 37 b5 28 bd 76 0a 19 bd
       -0.13781792 0.03277439 -0.041188445 -0.037363492
0002d0 ad 60 bf be 15 62 3e bd eb b3 7f bd 0c 5e d6 bc
       -0.37378445 -0.046480257 -0.062427443 -0.026167892
0002e0 6a 54 25 3f 94 65 7c 3d 1d ca ab bd 4a 7b 64 bd
       0.6458193 0.06162031 -0.083881594 -0.05578164
0002f0 8b 7e 9a bd 64 5e dd be 38 58 25 be 96 11 50 bb
       -0.075436674 -0.43236077 -0.16146934 -0.0031748763
000300 97 18 61 bb ab 9d 95 bd 9a b6 75 be 4f 5b 75 bb
       -0.0034346932 -0.073054634 -0.23995438 -0.0037438457
000310 fc a3 b5 3b a6 d1 42 bd 00 fe 1c bd 58 cd b5 be
       0.00554323 -0.047563218 -0.03832817 -0.35508227
000320 eb b6 b0 bd bf a4 03 3d 23 18 00 3d 1b ae c5 be
       -0.08628639 0.032139536 0.03127302 -0.38609394
000330 2e 11 05 bd aa 6e b8 bd 80 40 69 be 35 5f 4d bd
       -0.032487087 -0.090054825 -0.22778511 -0.050139625
000340 34 2d 8f bc b0 ce 80 be c4 4d a1 bd 09 fe 51 3f
       -0.01747761 -0.2515769 -0.07876161 0.8202825
000350 48 e3 29 3d 35 b4 78 bd 8b 96 91 bd b7 31 15 bd
       0.041476518 -0.060718734 -0.07108792 -0.036424365
000360 8c f2 97 3e 69 64 11 3f 8d 24 58 3f 56 aa 49 3c
       0.29677236 0.5679384 0.8443077 0.012308678
000370 0c ca 1d bd e7 29 d1 bd 7a b7 c6 bd 1d a2 4a 3b
       -0.038522765 -0.1021307 -0.09702964 0.003091938
000380 cc f7 52 3c 69 ef 75 3a 54 b9 87 bd ae 9c cd 3d
       0.012876462 0.0009381683 -0.066271454 0.1003965
000390 ab 39 78 3f 65 8f 6e bd c5 6c d3 3e 10 cd 39 3f
       0.96962994 -0.05824222 0.41293922 0.72578526
0003a0 9d 6d e0 3c 38 1f ca b9 74 a7 e6 bd 8b e0 18 bd
       0.027396018 -0.00038551702 -0.11262408 -0.037323516
0003b0 e6 49 24 3e fe 8e 72 bc 17 7a 14 bd de ea bd bc
       0.16043815 -0.0148046 -0.036249246 -0.023183282
0003c0 3a 6b ca 3d d0 ef 7f 3c fc 49 4c 3c b1 29 8b 3f
       0.09883733 0.015621141 0.012468811 1.0872098
0003d0 df 99 43 bf 4c 65 32 bb d6 d4 91 bd 9a 69 00 3e
       -0.76406664 -0.0027221022 -0.07120673 0.12540284
0003e0 1c a3 56 bd 62 7b 9c bd 27 3f 4b bd 0c 01 75 bd
       -0.052401647 -0.07640721 -0.049620774 -0.05981545
0003f0 c6 75 44 3d b2 12 7b 3f c4 83 93 3c d7 92 92 bd
       0.04796388 0.980754 0.018007167 -0.07156914

fc3.weight f4 [1, 400]
000000 5b 1d e2 3b a1 18 bb 3c c6 7e 68 bb 6d 55 bb 3c
       0.006900472 0.022838892 -0.0035475953 0.022867883
000010 a3 09 f5 bd 4f 37 a3 bb 52 18 d7 bc 82 5e 13 3c
       -0.11964729 -0.0049809585 -0.026256714 0.0089947
000020 d7 09 d3 3c 40 a1 72 3d e6 d5 fb bc 98 37 8b bc
       0.025761528 0.05923581 -0.030741643 -0.016994283
000030 7e b2 db 3c ac 76 72 3c 9c 6f 5b 3c e8 9d 34 b7
       0.02681851 0.014798801 0.013393309 -1.07656015e-05
000040 f8 a2 1f 3d d9 5b 51 3d d4 93 5f bc 09 e6 a6 bb
       0.03897378 0.051112983 -0.013646085 -0.0050933403
000050 25 ba 7c 3c 7a bd cf 3c d5 c0 f1 3a 0c cf 87 3d
       0.01542524 0.025358904 0.0018444309 0.06631288
000060 d6 9b b2 bc 71 28 d4 bc 02 4a 14 bd ca 1d 80 3b
       -0.021802824 -0.02589819 -0.03620339 0.003909801
000070 8f 5c cf 3b 2b 15 84 bc 62 f9 88 3b 3f c1 d7 3a
       0.0063281725 -0.016123375 0.0041801194 0.001646079
000080 35 71 4f bc ce 83 9e 3d a6 bb ac ba ce a3 8a 3a
       -0.012661268 0.077399835 -0.0013178482 0.0010577382
000090 97 7c b8 bd a7 f0 90 ba ea f1 1a bc 94 34 2d ba
       -0.090081386 -0.0011058048 -0.009457091 -0.0006607261
0000a0 17 db 99 bc 4f db 81 ba fb 33 7f bc e2 b0 79 bd
       -0.018781228 -0.0009907278 -0.015576358 -0.060959704
0000b0 45 9f 06 3d 7d e8 17 bc 30 53 64 3b ab 21 1a bd
       0.032866735 -0.009271738 0.0034839623 -0.037629765
0000c0 af 87 6d bc 98 af 66 bc 9a f3 0a 39 2e 57 29 bc
       -0.0144976815 -0.014079951 0.00013251454 -0.010335727
0000d0 87 13 a4 bc 75 6a a7 3b b3 bf fd 3c 39 34 22 bc
       -0.020028843 0.005109126 0.030975198 -0.009900146
0000e0 3e 36 75 3d 24 80 59 3c fb f2 d5 3c 12 6a 0b 3c
       0.059866183 0.01327518 0.026116839 0.008509176
0000f0 e6 ca f3 3d 21 6d 81 3d 58 34 b6 bc d1 02 e3 3b
       0.11903934 0.06319643 -0.022241756 0.006927826
000100 02 b9 da bb e8 d3 c2 3c ba 14 c2 bc 33 b5 8d bc
       -0.0066748867 0.023782685 -0.023691524 -0.017298317
000110 c5 68 b6 3d dd 0d 1b bc ce 55 36 3c eb d9 2d 3c
       0.08906702 -0.0094637545 0.011128856 0.010611038
000120 cf 21 73 3c 17 d5 34 3c 9c 1c 67 3c 9f cc 62 3c
       0.014839604 0.011037133 0.014105942 0.013842731
000130 00 4f b4 3c 18 5f 8f bd 9e c7 a4 bc fc 6b 7d 3d
       0.022010326 -0.070005596 -0.020114716 0.06187056
000140 e5 39 f4 3c 77 af a1 3b 26 66 42 bd 6a 07 c9 3c
       0.029812763 0.004934247 -0.047460698 0.024539668
000150 16 f2 1f 3c 2b 4e 93 3b 29 c9 c1 38 d0 a8 3e bd
       0.009762308 0.0044954023 9.240426e-05 -0.04654771
000160 aa b3 bc 3c be 65 11 3c 8f a9 dd 3c 0d 0b e3 b8
       0.02303489 0.008874355 0.02705839 -0.00010826262
000170 b8 fb 2e bc 46 47 8a 3c 14 8b 73 bc 54 7e c9 bc
       -0.010680132 0.016879689 -0.014864702 -0.02459637
000180 41 ee 58 bc 8a d0 24 be 0f 11 0c bc ee 0c 6d bb
       -0.013240398 -0.16095176 -0.008548989 -0.0036171037
000190 6c a2 8e 3c 45 c4 1d bd 08 65 eb bc 1a ff 57 3b
       0.017411433 -0.038517255 -0.028734699 0.003295845
0001a0 9f b8 cf 39 04 6b 06 3d d8 13 8f 3c 0d 2c 0b 3d
       0.0003961967 0.0328169 0.017465517 0.033977557
0001b0 f0 bb cb 3a d8 d5 82 3b ea 0c 84 3b 44 2b af 3d
       0.0015543681 0.0039927773 0.00402986 0.08553174
0001c0 bb 47 09 3b 8a 15 b4 3b b1 97 2d bd 93 d1 07 bc
       0.0020947296 0.0054957317 -0.042380992 -0.0082897125
0001d0 14 75 57 3b d5 c8 0a bd b7 45 26 bd 38 d1 c6 38
       0.003287618 -0.033882935 -0.04059383 9.480346e-05
0001e0 1e 7d 84 ba 24 af 9c bd 20 6f a2 bc 12 ee d4 bb
       -0.0010108089 -0.07650593 -0.01982838 -0.0064981068
0001f0 aa ed 3d 3d af 6b 11 bb 41 ee de 3c c4 a6 89 bc
       0.046369232 -0.0022189429 0.027213218 -0.016803153
000200 9e 24 74 bc b2 70 d1 3d 50 b6 35 3a 6b 70 9e bd
       -0.014901308 0.10226573 0.0006931769 -0.07736286
000210 fc 44 1f 3b ba 3c 45 3c 2c 2e e8 3c 83 16 40 bc
       0.0024302593 0.012038404 0.028342329 -0.011724117
000220 a8 5b a2 3c bc 6e 9a 3c ba 19 df bc 43 ed b3 38
       0.019819096 0.01885163 -0.027233947 8.5795786e-05
000230 5c de 8a 3c fc e5 03 3c 56 d8 b1 bc ba 45 b6 bc
       0.016951732 0.008050438 -0.021709602 -0.022250045
000240 e2 01 df bc 4a 57 fb 3c 89 17 5a bc 02 d6 ba b9
       -0.027222577 0.030681271 -0.013311275 -0.00035636133
000250 27 ab fb 3c 76 38 a1 3c 7a 82 8d bd ef da b0 bc
       0.03072126 0.019680243 -0.06909652 -0.02158877
000260 51 10 17 3a 3f b6 cd 3c 3a 6d 47 3c db f5 1f bd
       0.0005762624 0.025111316 0.012172038 -0.039052825
000270 74 25 5f bd f5 15 90 bc b2 68 94 3c 48 7e 6f 3a
       -0.054479077 -0.017588595 0.018116329 0.0009135944
000280 01 7d 45 bc 55 4c 46 3c 34 cf 08 bb d4 9f 1e be
       -0.012053729 0.01210316 -0.0020875456 -0.15490657
000290 39 a2 8f bc 68 ae 75 3c 09 bb 31 bb 1b 40 09 3c
       -0.017533408 0.014995195 -0.0027119538 0.0083771
0002a0 cd 2d a0 3d b6 83 b1 3b b9 5c 6d 3c 38 04 b0 bc
       0.07821236 0.0054173125 0.014487439 -0.021486387
0002b0 f8 41 d2 ba e0 d6 58 3d c5 7f 62 bd f8 76 a6 3d
       -0.0016041389 0.052939296 -0.05529763 0.0812816
0002c0 c4 09 c5 39 3d aa f6 3c 10 e7 fb bc 7e 41 02 3c
       0.00037582044 0.030110473 -0.030749828 0.007950185
0002d0 6f f2 ab 3c aa ce 4a 3c 79 1b a8 3a 34 30 02 ba
       0.020989625 0.012378374 0.001282557 -0.0004966289
0002e0 0b e1 3c 3d 6e d3 c1 3d 05 28 39 bb bc cd 08 bc
       0.046113055 0.09464155 -0.0028252613 -0.008349832
0002f0 55 41 2d bc fe 9c ca bc e9 41 64 3d 62 77 36 3d
       -0.010574658 -0.024733063 0.05572692 0.044547446
000300 41 d7 d5 3b d3 b3 0f 3c db 59 f4 3c 28 32 88 bc
       0.0065259044 0.008770901 0.029828003 -0.016625479
000310 2c 66 dc 3c 12 8c 1b bb 7a 3e 29 3c 89 93 21 bc
       0.026904188 -0.0023734611 0.010329837 -0.009861835
000320 20 8a e1 bc 07 27 e9 3b 94 b9 0d 3c fb 21 86 bd
       -0.027531683 0.007115248 0.008650202 -0.0654945
000330 32 6d 72 bc 56 44 07 3d a9 35 7d bc 4e 7a 29 bc
       -0.014796542 0.033024155 -0.015454688 -0.010344101
000340 65 76 0d 3c 1f 4d 16 be 65 1c 24 3c e2 37 6c 3d
       0.0086341845 -0.14677857 0.010016535 0.05767048
000350 3b 4b 07 3c 86 62 af 3a 32 9a 98 bb e1 d0 e7 ba
       0.008257682 0.0013380803 -0.0046570534 -0.0017686152
000360 2c cf 71 3c 9e e8 6e 3d 43 82 16 3d 80 b8 bc 3d
       0.014758866 0.05832731 0.03674532 0.09214878
000370 25 90 7c 3c d2 d6 02 3c 7c f0 04 3d ec 1d fc bb
       0.015415226 0.0079857875 0.032455906 -0.0076939967
000380 ca 39 e1 bc c8 3f e4 bc 20 9b 0f bd dc c0 63 bc
       -0.027493376 -0.027862445 -0.035060048 -0.013900962
000390 48 47 1f 3d 7f 35 bf 3a e1 3b 0a 3d d5 4b f1 3c
       0.03888634 0.0014588087 0.03374851 0.029455105
0003a0 cb 79 f3 3d 1c 96 e6 3c 5b 59 bf ba f2 2d 80 bb
       0.118884645 0.02814775 -0.0014598774 -0.003911727
0003b0 10 7d 91 3d 35 47 ec bc ad a6 44 3d cc 33 88 bc
       0.07103932 -0.028842548 0.048010517 -0.016626261
0003c0 d2 cb 0a bc f3 38 d8 bb eb 1f 83 3c e5 0f 0f 3e
       -0.008471446 -0.0065985858 0.01600643 0.13970907
0003d0 6a 6a bc 3b 1c 25 97 3c 62 ec c1 bb d5 9c cb 3c
       0.00574999 0.018450312 -0.0059180716 0.024855057
0003e0 e8 e2 4a bc 1f 9e 95 bb be ed fd 3b d7 c1 04 bb
       -0.0123832 -0.0045659686 0.0077492883 -0.002025714
0003f0 d9 ec c4 3a 20 57 86 3d 4d cd 03 bc 51 3c a6 3d
       0.0015024199 0.065595865 -0.008044553 0.08116973
